prod/modelMood.pth (torch, 396896 bytes, 4 tensors)

fc1.weight f4 [128, 768]
0	0xbcdb0344	-0.026734956
1	0x3c4add58	0.012381874
2	0x3cd380f7	0.025818331
3	0x3d2c27a1	0.04202998
4	0xbbb90545	-0.00564638
5	0x3ce43023	0.027854985
6	0x3c5244eb	0.012833814
7	0x3c0905a4	0.008363161
8	0xbd06d2c0	-0.03291583
9	0x3d3c0bfd	0.04590987
10	0x3cd75809	0.026287096
11	0x3cfcd275	0.030862072
12	0xb9fcc69c	-0.0004821316
13	0x3cfc9f96	0.030837815
14	0xbb6a25ab	-0.0035728018
15	0x3b285e8b	0.0025691118
16	0x3cf758c0	0.030193686
17	0x3c98edb1	0.018668028
18	0xbd0dec52	-0.0346492
19	0x3d26c062	0.040710814
20	0xbccadb1d	-0.024762684
21	0xbc1644c8	-0.009171672
22	0x3c265721	0.010152609
23	0x3c815012	0.01578525
24	0xbc5c3cb5	-0.013442208
25	0x3d072831	0.032997314
26	0x3ca59c93	0.020216262
27	0x3ca7c702	0.020480637
28	0x3c2004ae	0.009766741
29	0x3bcb0bd9	0.0061964807
30	0xbd0b0d32	-0.03394813
31	0xbcd666e0	-0.026172101
32	0x3cb2bace	0.021817591
33	0xbc86a37c	-0.016435377
34	0xbccb21f8	-0.024796471
35	0x3c11f3e3	0.008908245
36	0xbcf3effe	-0.029777523
37	0x3cb07f76	0.021545153
38	0x3ccfc35f	0.025361715
39	0x3c1759a4	0.009237681
40	0xbbf67fdb	-0.007522566
41	0xbc83a1ea	-0.016068418
42	0xbcbd41d8	-0.023102686
43	0xbcb87f48	-0.02252163
44	0x3d5b3cbb	0.053524714
45	0xbc0dea40	-0.008661807
46	0xbd1cee1e	-0.038313024
47	0xbcbdb983	-0.023159748
48	0xbc56fe09	-0.01312209
49	0xbd09856e	-0.033574514
50	0xbd004747	-0.031317975
51	0xbc7dcf59	-0.01549133
52	0xbade9026	-0.0016980215
53	0xbc177b29	-0.009245672
54	0x3c8805b3	0.01660428
55	0x3c983655	0.018580595
56	0xbcd781f7	-0.02630709
57	0x3d2a25f3	0.041540097
58	0x3d301c67	0.042995837
59	0xbc534ee8	-0.012897231
60	0xbc9965b6	-0.018725257
61	0xbc893f79	-0.016753899
62	0xbcbb6285	-0.022874126
63	0x3c9f29fb	0.019429198
64	0x3c592d6e	0.01325546
65	0xbbef9070	-0.0073109195
66	0x3cc82182	0.02443004
67	0xbd0b9611	-0.03407866
68	0xbd1a106c	-0.037613317
69	0x3d0a216c	0.03372328
70	0x3c97b60a	0.01851942
71	0xbba20a09	-0.004945044
72	0x389fcf58	7.6203316e-05
73	0x3d13e0c1	0.036103014
74	0xbc205cdb	-0.0097877635
75	0x3b42e5fd	0.0029739134
76	0x3ce7d8ba	0.028301585
77	0x3cdbb227	0.026818348
78	0xbc837035	-0.016044715
79	0x3c1b9f9b	0.009498502
80	0xbc94bb3d	-0.018155688
81	0xbca04d65	-0.019568155
82	0x3af6ddb6	0.0018834386
83	0x3c84c616	0.016207736
84	0xbc2ec94c	-0.01066811
85	0x3c235a39	0.009970241
86	0x3cff8e63	0.031195825
87	0xbd216646	-0.039404176
88	0x3c6b9901	0.014379741
89	0xbb785130	-0.0037890188
90	0xbd2b7fa7	-0.041869786
91	0x3d47c7d9	0.048774574
92	0x3c350c62	0.011050316
93	0xbc0d166f	-0.008611306
94	0xbc87d695	-0.016581813
95	0xbcd2950c	-0.025705837
96	0xbd3bac1d	-0.045818437
97	0x3d0750c7	0.03303602
98	0xbc97a791	-0.01851252
99	0xbc9feb1a	-0.019521285
100	0x3d0d41c3	0.034486543
101	0xb9515e58	-0.00019966939
102	0x3bf6eccf	0.007535554
103	0x3ca23d4b	0.019804617
104	0xbc9082d7	-0.017640514
105	0xbcccf526	-0.02501924
106	0xbd021658	-0.03175959
107	0xbc1e3b1a	-0.009657646
108	0xbc6471aa	-0.013943115
109	0xbb9b2d4f	-0.004735626
110	0x3d42d15c	0.047562942
111	0xbbf4a2d8	-0.0074657016
112	0xbd120c73	-0.035656404
113	0x3b740824	0.0037236298
114	0xbc9bc99e	-0.019017037
115	0xbc686c6e	-0.014186008
116	0x3d246cc1	0.04014278
117	0x39df0934	0.0004254073
118	0x3c547a54	0.012968618
119	0x3c107203	0.008816245
120	0xbc1b8708	-0.009492643
121	0x3bc1cce0	0.0059143156
122	0xbb1aad44	-0.002360181
123	0xbbcb7dd0	-0.0062100664
124	0xbb3a2460	-0.002840303
125	0x3d16b770	0.036796033
126	0x3d03ae08	0.03214839
127	0xbc795d9e	-0.015220074
128	0x3d257826	0.040397786
129	0xbd0960f6	-0.033539735
130	0x3c60430b	0.013687859
131	0x3c303f27	0.010757244
132	0xbca13e5c	-0.019683056
133	0x3a625a3d	0.00086346624
134	0x3c7b2778	0.015329234
135	0xbc8a624a	-0.016892571
136	0x3c52f013	0.012874621
137	0x3d2de9fa	0.042459466
138	0x3ba9c594	0.005181024
139	0x3cee3adb	0.029080799
140	0x3bdb5f43	0.0066947057
141	0xbc94d907	-0.018169893
142	0xbc5fc8b5	-0.013658692
143	0xbce223c7	-0.02760495
144	0x3c92c2b3	0.017915105
145	0x3c4003ea	0.011719683
146	0x3d17d12f	0.037064727
147	0xbc55395d	-0.013014165
148	0xbc47da41	-0.012198032
149	0x3ce9ef3f	0.028556464
150	0xbc2a19a5	-0.010382091
151	0x3ce44461	0.027864637
152	0xbd258c3d	-0.040416945
153	0xbc89ff06	-0.016845237
154	0x3ce53907	0.027981294
155	0xbd14cc63	-0.03632773
156	0x3a4cd83e	0.0007814205
157	0xbd0c1e1b	-0.0342084
158	0xbb3f2aa3	-0.00291697
159	0xbb45821c	-0.0030137366
160	0xbc817b94	-0.015805997
161	0xbd00e03b	-0.031463843
162	0xbd2ac5d1	-0.04169256
163	0xbd1d07b9	-0.038337443
164	0xbd059975	-0.03261705
165	0xbc9322ec	-0.017960988
166	0x3d05d83d	0.032676924
167	0xbd0a9ee3	-0.033842932
168	0xbcc93cf4	-0.024565198
169	0x3cfc423f	0.030793307
170	0x3bf68c47	0.0075240466
171	0x3c480cc0	0.012210071
172	0x3c8f8935	0.01752148
173	0x3c9c7947	0.019100798
174	0x3c8786b1	0.016543718
175	0xbc89a817	-0.016803784
176	0x3c989836	0.018627267
177	0x3c57c720	0.013170034
178	0xbcaa319f	-0.020775614
179	0xbc871423	-0.016489094
180	0xbc3e7378	-0.01162421
181	0xbb2da7f8	-0.0026497822
182	0x3b91a599	0.0044447896
183	0x3c7b86a2	0.015351923
184	0xbd0cab90	-0.034343302
185	0x3d88a295	0.06671635
186	0x3ca8e7a5	0.02061827
187	0xbd08716a	-0.033311285
188	0xbb752786	-0.003740759
189	0x3c70511c	0.0146677755
190	0x3b0b6c8b	0.0021274413
191	0x3bcd40b1	0.0062638153
192	0xbd11dfcd	-0.035613824
193	0xbd026984	-0.03183891
194	0x3ce3057e	0.02771258
195	0x3d11bc0c	0.035579726
196	0x3ce09d3c	0.027418725
197	0xbc854884	-0.01626993
198	0xbba43e02	-0.0050122747
199	0x3d42d0a3	0.047562253
200	0x3b8774c3	0.004133792
201	0xbb2fd8f6	-0.00268322
202	0x3c02e4a4	0.0079890825
203	0xbd2caacd	-0.042155076
204	0xbc5a17ac	-0.013311308
205	0x3cdeadf1	0.027182551
206	0x3ce6b608	0.028162971
207	0x3d0fe644	0.035131708
208	0xbc463f3c	-0.012100037
209	0x3d0cc895	0.034370977
210	0xbcaf4867	-0.021396829
211	0xbb14feb4	-0.0022734823
212	0x3bdc729b	0.006727529
213	0x3d24544c	0.040119454
214	0xbc8ee2b7	-0.01744209
215	0x3c0ede38	0.008719973
216	0x3c9b885e	0.018985923
217	0xbcc7d8c5	-0.024395356
218	0x3d1322d4	0.035921887
219	0xbc70ce1c	-0.014697578
220	0x3cfbfe6e	0.03076097
221	0x3c51d47f	0.012807011
222	0xba83f563	-0.0010067638
223	0xbcd8a0f2	-0.026443932
224	0xbd1dcb69	-0.038524065
225	0x3d15ab86	0.03654053
226	0x3ceacb00	0.028661251
227	0x3ce85fd5	0.028366009
228	0xbcf6ec16	-0.030141871
229	0x3cad8b6c	0.021184646
230	0x3c53d850	0.012929991
231	0xbb82ccad	-0.0039916844
232	0xbd593391	-0.053027693
233	0x3d2158bf	0.039391275
234	0x3d47d657	0.048788395
235	0x3b73bf89	0.0037193021
236	0xbd0b2715	-0.03397282
237	0xbd45914a	-0.04823426
238	0xbc03556e	-0.0080159735
239	0xbd0df960	-0.03466165
240	0xbd3df8d2	-0.04637987
241	0x3b207336	0.0024482734
242	0xbcbdfae0	-0.023190916
243	0xbcead7c5	-0.02866734
244	0x3cbf7bce	0.023374464
245	0xbbf32816	-0.00742055
246	0xbd3e0dee	-0.046400003
247	0xbd3d2f08	-0.04618743
248	0xbc1e1418	-0.009648345
249	0x3cfa6608	0.03056623
250	0x3bfb25e0	0.007664427
251	0xbcfe7769	-0.031062799
252	0xbce157fa	-0.02750777
253	0xbcaa7114	-0.020805873
254	0x3ce65bef	0.02812001
255	0x3a8102e7	0.0009842784

fc1.bias f4 [128]
0	0x3c813087	0.01577021
1	0xbc880f59	-0.01660888
2	0x3cc81afe	0.024426933
3	0xbbf11706	-0.007357481
4	0xbcfe1a0d	-0.031018281
5	0xbcc78e45	-0.024359832
6	0x3c899c86	0.016798269
7	0x33bf927e	8.9207774e-08
8	0xbca0cf4d	-0.019630099
9	0x3b3557c8	0.002767073
10	0x3a472eb7	0.00075982086
11	0xbb4ee3e2	-0.0031568934
12	0x3d0f649a	0.03500805
13	0xbc07b1c8	-0.008282132
14	0x3c7ea705	0.01554275
15	0xbaeb3cca	-0.0017947194
16	0xbcacade6	-0.021079015
17	0xbc91320d	-0.017724061
18	0xbc94eaf8	-0.018178448
19	0xb87c52d6	-6.015863e-05
20	0xbc0318c4	-0.00800151
21	0xbcafc716	-0.021457236
22	0x3d0839f7	0.033258405
23	0xbcf190e9	-0.029488044
24	0xbcbaeeee	-0.022819009
25	0xbcd8ac4f	-0.02644935
26	0x3c678520	0.014130861
27	0x3c0e6c6d	0.008692843
28	0xbb614015	-0.0034370471
29	0x3baa9154	0.0052053127
30	0xbd070f3c	-0.032973513
31	0xbceec907	-0.029148592
32	0x3b8b7e5a	0.0042570056
33	0xba7e3256	-0.00096968317
34	0x3cc0d8a8	0.02354081
35	0xbcab5f5c	-0.020919494
36	0x3d18d78c	0.037314937
37	0x3c72a481	0.014809729
38	0xbd00ec47	-0.03147533
39	0x3ca25b9e	0.019819077
40	0x3d1e73ac	0.038684532
41	0xbca998b2	-0.020702694
42	0xbcc81088	-0.024421945
43	0xbc8f1982	-0.017468218
44	0xbb8c90d9	-0.004289728
45	0x3cc751da	0.024331022
46	0x3aeadaf7	0.001791804
47	0xbc0d9e18	-0.0086436495
48	0x3c5bce21	0.013415844
49	0x3ce7265f	0.028216539
50	0x3d18c80d	0.03730016
51	0xbc370e3a	-0.0111728255
52	0x3c21b81a	0.009870553
53	0x3ca66827	0.020313336
54	0x3c558cdf	0.013034075
55	0x3c989852	0.01862732
56	0x3c2ea5c0	0.010659635
57	0xbb07917e	-0.0020686085
58	0x3d212edf	0.03935134
59	0x3c18c7bd	0.009324965
60	0x3abcfe4a	0.0014419046
61	0x3cc7e54c	0.02440133
62	0x3ca7902e	0.020454492
63	0xbcac3e51	-0.021025809
64	0x3cbf7d3a	0.023375142
65	0x3cc2fa6e	0.023801055
66	0xbd1b9d1a	-0.03799162
67	0x3ca83c86	0.020536672
68	0xbcc8750c	-0.024469875
69	0x3be70f21	0.007051364
70	0x3ba9d1f8	0.005182501
71	0xba992a2f	-0.0011685545
72	0x3d15849b	0.036503416
73	0xbcd3a553	-0.025835669
74	0xbb9ff21a	-0.0048811557
75	0x3c8a2012	0.016860995
76	0x00055c37	4.92258e-40
77	0x3cc95412	0.02457622
78	0x3cd3d4f9	0.02585839
79	0x3cf0af12	0.029380355
80	0xa0cc7e42	-3.4642495e-19
81	0xbb161a69	-0.0022903925
82	0x3c2d3902	0.010572674
83	0x3cb429fa	0.021992672
84	0x3c89e570	0.016833037
85	0xbcea599b	-0.02860718
86	0x3cbbff27	0.022948815
87	0x3c6b3f36	0.014358332
88	0xbab4f047	-0.0013804518
89	0x3be7d486	0.0070748953
90	0x3ad8ac2d	0.0016530805
91	0x3cc8c6a6	0.024508785
92	0xbc998e78	-0.018744692
93	0xbb01e436	-0.0019819862
94	0x3cd81b7e	0.026380297
95	0x3c1a46d5	0.009416302
96	0x3c9b09fb	0.018925657
97	0xbca471aa	-0.02007373
98	0xbcb4a2ea	-0.02205034
99	0x3c8987d1	0.016788395
100	0xbcc25e29	-0.02372654
101	0xbcf0d95d	-0.029400522
102	0x8b5f88f4	-4.305127e-32
103	0x3c1bb51b	0.009503628
104	0xbc2fab93	-0.010722059
105	0x3bd81877	0.0065947133
106	0x3c81e972	0.015858386
107	0x3cd48978	0.025944456
108	0x3c98b76c	0.01864215
109	0x3b24f44f	0.0025170033
110	0x39d6567a	0.0004088169
111	0xbca6799a	-0.020321656
112	0xbc885bc8	-0.016645327
113	0xbafb3886	-0.0019166626
114	0x3ce53a7b	0.027981987
115	0xbc9c7f0d	-0.019103551
116	0xbccce859	-0.025013136
117	0x3b4f3be4	0.003162139
118	0x3cb9881b	0.022647908
119	0xbc3b2ee3	-0.011424753
120	0xbc0ac753	-0.008470374
121	0x3bcc73e2	0.0062394002
122	0x3ca6f9b3	0.020382738
123	0x39259483	0.00015790951
124	0xbcca919e	-0.024727639
125	0x3c972215	0.018448869
126	0x3b20a7be	0.0024514045
127	0x3c403f1a	0.011733795

fc2.weight f4 [2, 128]
0	0xbde719f0	-0.11284244
1	0xbe081506	-0.1328927
2	0x3d9a9860	0.075485945
3	0xbdfb2df5	-0.12264625
4	0x3ba27cd1	0.004958727
5	0xbcc92a07	-0.024556173
6	0xbd4f7a5e	-0.050653808
7	0xbbb6b30d	-0.0055755437
8	0x3daba1c7	0.08380466
9	0xbd91a449	-0.07111413
10	0x3e0c110e	0.13678381
11	0x3dcd9aa0	0.10039258
12	0x3c308e3f	0.010776102
13	0xbca6914e	-0.020332959
14	0x3d07b6e2	0.033133395
15	0x3c33b527	0.010968483
16	0xbd5b6384	-0.053561702
17	0xbdd35ccd	-0.10320435
18	0x3d3fc0d4	0.046814755
19	0xbd3b6cd5	-0.045758087
20	0xbc79b6cd	-0.015241337
21	0xbcab477e	-0.020908114
22	0x3d79a6e0	0.06095016
23	0xbd1b7b92	-0.037959643
24	0x3ce0af92	0.027427468
25	0x3cc9b8ca	0.024624247
26	0x3d9adf3d	0.075621106
27	0x3a95a9e4	0.0011418429
28	0xbd972d84	-0.07381728
29	0xbd8596c7	-0.06522899
30	0xbd61f89b	-0.05516873
31	0xbcc59ef4	-0.024123646
32	0x3e01c909	0.12674345
33	0xbcd13cac	-0.025541626
34	0xbe0fe5e6	-0.14052543
35	0xbd38a472	-0.045078702
36	0xbdc61453	-0.09671845
37	0xbc654a4d	-0.0139947655
38	0xbd993db6	-0.074824736
39	0xbd30ac09	-0.043132816
40	0x3cb51110	0.022102863
41	0x3cfd8575	0.030947426
42	0xbd9258c1	-0.07145835
43	0x3da682ea	0.081304386
44	0xbc533919	-0.012892031
45	0xbdbfda49	-0.093678065
46	0xbda91275	-0.082554735
47	0x3cef0a9e	0.029179867
48	0x3e0eb63a	0.13936701
49	0xbd7caafa	-0.061686493
50	0x3db46413	0.0880815
51	0x3d03d16a	0.032182135
52	0x3d47a137	0.04873773
53	0xbd9ceea0	-0.076627016
54	0xbd3afb48	-0.045649797
55	0xbd551ba3	-0.05202831
56	0xbd9c2c94	-0.0762569
57	0x3dc6ed61	0.09713245
58	0x3d8358fc	0.06413457
59	0x3ca92fc6	0.020652663
60	0xbd393e6a	-0.04522554
61	0xbde1f5d0	-0.11033213
62	0xbd94ff6f	-0.072752826
63	0xbc0dfc1d	-0.0086660655
64	0x3c84e642	0.016223077
65	0x3dc4f7ed	0.096176006
66	0xbdcdf243	-0.100559734
67	0x3d483f33	0.048888396
68	0xbdc800ed	-0.097658016
69	0xbccbb068	-0.02486439
70	0xbdc5d711	-0.09660161
71	0xbdc081b8	-0.09399742
72	0x3cfca267	0.030839158
73	0xbdc51e13	-0.09624877
74	0xbd384c8c	-0.044994876
75	0x3d781885	0.06057026
76	0x3800bbe1	3.0692554e-05
77	0x3df2705d	0.11837838
78	0xbd83f890	-0.06443894
79	0xbcf8318b	-0.030297061
80	0xbc77c34a	-0.015122244
81	0xbd3cdbb3	-0.04610796
82	0xbdb32494	-0.08747211
83	0xbd782d7b	-0.06059025
84	0x3e582f38	0.21111763
85	0x3d6bcb17	0.05756673
86	0x3d82ba61	0.06383205
87	0x3dd4b680	0.103863716
88	0x3d1365be	0.0359857
89	0xbdb03a1b	-0.08604833
90	0x38b6bd00	8.71364e-05
91	0x3d02811a	0.031861402
92	0x3daf3846	0.08555655
93	0x3c1a1f85	0.009406929
94	0xbd9a100a	-0.075225905
95	0xbdcc3a18	-0.09972018
96	0xbc8b2f5a	-0.016990352
97	0xbd090f75	-0.033462007
98	0x3dda670d	0.106641866
99	0x3de83048	0.11337334
100	0xbd17c678	-0.03705451
101	0x3cefd506	0.029276382
102	0xbb9c8f49	-0.004777823
103	0x3d4f47da	0.050605632
104	0x3dc05bd7	0.09392517
105	0xbd826c8a	-0.063683584
106	0x3d911d9f	0.07085728
107	0x3c30e67b	0.010797138
108	0xbe22ff67	-0.15917741
109	0x3dcf5d4d	0.101252176
110	0x3c144972	0.009050714
111	0x3d178bca	0.036998548
112	0xbd1d29b6	-0.038369857
113	0x3d7adcc5	0.0612457
114	0x3d222aba	0.03959153
115	0x3d71ba4e	0.059015565
116	0xbcfdc763	-0.030978864
117	0x3d9c4cf8	0.07631868
118	0xbd7697a0	-0.060203195
119	0x3c92370f	0.01784852
120	0xbdc346de	-0.09535001
121	0xbdb96abf	-0.09053563
122	0xbccf583a	-0.025310624
123	0x3d8330e4	0.064058095
124	0xbd7c580f	-0.061607417
125	0xbd8a50e5	-0.06753711
126	0xbc9918eb	-0.01868864
127	0x3ce1715e	0.027519878
128	0x3d6293ee	0.055316858
129	0x3c6573d2	0.0140046645
130	0x3d721af6	0.059107743
131	0x3cd4c00f	0.025970487
132	0x3d84ac7b	0.064782105
133	0xbdc0671c	-0.093946666
134	0x3de43ee6	0.111448094
135	0x3c25f7c4	0.010129873
136	0x3c44a7df	0.012002914
137	0x3d6770dd	0.05650412
138	0x3cc1f827	0.023677899
139	0xbdd29d64	-0.10283926
140	0xbdba16fc	-0.09086415
141	0x3d114d16	0.035473906
142	0x3deced1f	0.11568665
143	0xbde459a6	-0.111499116
144	0x3d34af26	0.044112347
145	0x3d1484ea	0.03625957
146	0xbdc4a952	-0.09602608
147	0x3db786bd	0.08961246
148	0xbc875f04	-0.0165248
149	0xbd986b4e	-0.07442342
150	0xbde6dc5f	-0.11272501
151	0x3de564b1	0.11200846
152	0x3d32f6a8	0.04369226
153	0x3d58b67d	0.05290841
154	0xbc37f324	-0.011227403
155	0xbde620e4	-0.11236742
156	0xbd95398f	-0.07286369
157	0x3d0620ca	0.032746114
158	0x3da8f68d	0.08250151
159	0x3c5b5a41	0.013388217
160	0xbd30df8a	-0.043181933
161	0xbdfefaf3	-0.124502085
162	0x3e11358a	0.1418058
163	0x3cc5e828	0.024158552
164	0xbc256acb	-0.010096262
165	0xbdbe95fd	-0.09305952
166	0x3db77abf	0.08958959
167	0x3d8330be	0.06405781
168	0xbd92012d	-0.071291305
169	0xbdb16bf6	-0.0866317
170	0x3e1f8cac	0.15581006
171	0xbe0fad07	-0.14030848
172	0x3dbb5c41	0.091484554
173	0x3dd01325	0.101599015
174	0xbb820829	-0.003968258
175	0x3db58f6b	0.088652454
176	0xbd92e2b0	-0.071721435
177	0x3d9c1229	0.07620651
178	0xbe001aad	-0.12510176
179	0xbdb60f84	-0.08889678
180	0x3db121d3	0.086490296
181	0xbd763a99	-0.060114477
182	0x3cba128b	0.02271392
183	0x3dedf839	0.1161961
184	0x3df31ddd	0.1187093
185	0xbce3349b	-0.027735045
186	0xbcd2f04b	-0.025749346
187	0xbdb0f4a5	-0.08640412
188	0x3d1cb110	0.038254797
189	0xbcf39fe0	-0.02973932
190	0x3cc699d2	0.02424327
191	0x3dba13dd	0.0908582
192	0x3db9953e	0.09061669
193	0xbc9266fe	-0.017871376
194	0x3d62554d	0.05525713
195	0xbc9506c2	-0.018191699
196	0xbd1e59ec	-0.038659975
197	0xbd267a37	-0.040643897
198	0xbd868c27	-0.06569701
199	0x3ca738f6	0.020412903
200	0xbddefab3	-0.10887661
201	0x3dafaf6e	0.085783824
202	0x3d0110d8	0.031510204
203	0xbd9cf697	-0.07664221
204	0x389d5734	7.502586e-05
205	0xbd29f3c8	-0.041492254
206	0xbdba0835	-0.090835966
207	0xbd9788ae	-0.073991165
208	0xbc084199	-0.008316421
209	0x3d959492	0.07303728
210	0x3cf9b1dd	0.03048032
211	0x3d11d27b	0.03560112
212	0xbe11994d	-0.14218636
213	0xbdc1d65f	-0.09464716
214	0xbd7ff612	-0.06249053
215	0xbd2c49e0	-0.04206264
216	0x3d040db9	0.03223965
217	0xbcc4dc4f	-0.024030833
218	0x3d84d0cb	0.064851366
219	0xbda84bed	-0.08217607
220	0xbdc31a0c	-0.095264524
221	0xbd87104b	-0.065949045
222	0x3cc30869	0.023807721
223	0x3c5e0c5c	0.013552751
224	0x3d99920c	0.07498559
225	0x3cf2ac34	0.029623128
226	0x3ce15221	0.027504982
227	0xbdb917eb	-0.09037765
228	0xbc46d480	-0.012135625
229	0xbd36e0bd	-0.04464792
230	0x39df83f1	0.00042632179
231	0xbddecbc6	-0.108787104
232	0xbdcffb0f	-0.101553075
233	0x3d7e7117	0.06211957
234	0x3da8cc3c	0.082420796
235	0x3de332a4	0.11093643
236	0x3d373164	0.044724837
237	0xbd83fba0	-0.06444478
238	0x3d4e19f4	0.05031772
239	0xbd983b60	-0.074332
240	0x3d53e69c	0.051733598
241	0xbd715148	-0.058915406
242	0xbda2ee65	-0.079556264
243	0xbd371d86	-0.04470589
244	0x3da01734	0.07816926
245	0xbdeb801a	-0.11499043
246	0x3d61ca2d	0.05512445
247	0x3daff9dc	0.08592579
248	0x3dc86cec	0.097864
249	0x3dfd5696	0.123700306
250	0xbde738d4	-0.11290136
251	0xbd71c9b2	-0.059030242
252	0xbcb99c41	-0.022657515
253	0x3d97c3c7	0.074103884
254	0xbdb3c65a	-0.08778067
255	0xbdc4c3d7	-0.09607666

fc2.bias f4 [2]
0	0x3d3c34ba	0.04594872
1	0xbd88cad8	-0.066793144
