prod/modelTime.pth (torch, 398944 bytes, 4 tensors)

fc1.weight f4 [128, 768]
0.005858202 0.00734865 -0.031222243 -0.014922836 -0.0031658052 -0.0070400066 -0.01216236 0.010179524
0.031323735 -0.03552665 0.0009937403 -0.010340022 0.010064459 -0.03519907 0.0034860035 0.03747976
0.0209927 0.028355079 -0.012112973 -0.004200388 0.03314081 0.019045148 -0.009730854 -0.0064064767
-0.026276937 0.009551097 -0.04893996 0.014806901 -0.01339336 -0.018453252 0.026227133 -0.0067451987
0.014416015 -0.00855681 -0.011332553 -0.014832429 0.021867903 0.012370969 -0.011941413 0.022446614
0.017190091 0.0060651223 -0.021715906 -0.03159324 -0.0019190321 0.0022952626 0.020744493 -0.025217704
0.039577555 0.021386692 -0.022873297 -0.023288228 -0.03079753 0.022263862 0.0408991 0.018264657
-0.04413839 0.008253606 0.016770424 -0.026795032 0.01420973 0.00072061404 -0.033243902 0.017292041
0.00013110493 0.018339466 0.012122587 -0.040558856 -0.022751482 -0.02961923 -0.02079576 0.024835475
-0.006859049 0.033188503 -0.03366158 -0.012558422 0.0047959783 0.03523229 -0.022130562 0.019028794
-0.0070072412 0.005310743 -0.021015754 -0.015457709 0.009266553 -0.012449146 -0.0060874694 0.024157811
0.028832192 0.020149 0.030360978 0.010912032 -0.03032207 0.0083770435 -0.03520712 -0.0025131777
-0.033790935 -0.02265456 0.0027911987 0.0022827135 -0.044055916 0.014837938 -0.022449892 -0.041156124
-0.032310937 0.0019000731 0.040433988 -0.028468128 0.023512118 -0.0131453825 -0.01597197 0.017679874
-0.01060057 -0.026915085 0.02019901 0.03254613 -0.0031499153 0.010818003 0.0049346113 -0.016062962
-0.030728705 -0.024568822 0.00404019 -0.028176103 -0.02462259 -0.00983708 0.03276982 0.04341169
0.014869452 -0.012094556 0.0061897584 0.02608205 -0.03028629 -0.049803156 -0.0077940105 -0.02899135
-0.010814627 -0.023093967 0.040173367 0.015705606 0.0034489331 -0.03253405 -0.015788896 -0.013376465
0.04508377 0.008294146 0.019697905 -0.0092837745 0.016122056 -0.028149914 0.008520338 0.015813766
0.007724393 0.015787382 0.019031918 0.024669671 0.003846476 -0.012143826 -0.011565259 -0.022147479
-0.011738742 -0.0068202848 -0.010335725 -0.000597252 -0.0062380508 -0.040714983 0.0049417834 -0.026732111
-0.027556308 -0.027530415 0.0030340909 0.019339215 -0.016392352 -0.020198572 -0.011159573 0.054070745
0.020398393 0.014978849 0.0339312 0.014206253 -0.015106364 -0.0312925 -0.013340952 -0.039449707
-0.004201882 0.029225104 -0.0071211406 -0.02528057 -0.015960127 0.013970162 0.026583454 -0.044967305
0.01749784 0.026661413 0.03780394 -0.020968504 -0.008189115 0.02424232 -0.012783177 -0.021202885
0.0066117817 -0.0061970544 -0.026568014 -0.012049342 -0.008419843 -0.020359177 -0.02556673 0.020497223
-0.0004211079 -0.013261859 0.009593361 0.023718677 -0.012076037 -0.021646105 0.024470232 -0.0114505505
0.0011682381 0.0045042 0.01305243 -0.023153385 0.009983759 0.020928023 0.034444902 0.03263212
0.018466298 0.03848542 -0.0029632791 0.036635354 -0.0065229503 0.015500454 0.04011511 0.0035837225
-0.034901094 0.008564192 -0.014123035 0.004628547 0.02489331 -0.007535107 0.021667482 0.026915511
-0.009848702 -0.0007567101 0.029664556 -0.02127519 0.010603588 0.0251447 0.0054347697 -0.0026233138
-0.020884903 -0.013617449 -0.01630305 0.023381405 -0.055550333 -0.023504924 -0.029124837 0.0044400864
00000000: 29f6 bf3b f2cc f03b cac5 ffbc e97e 74bc
00000010: 6679 4fbb dbaf e6bb a344 47bc 05c8 263c
00000020: 514d 003d 6484 11bd 6440 823a 3269 29bc
00000030: 67e5 243c e62c 10bd 6f75 643b 6084 193d
00000040: e2f8 ab3c e948 e83c 7e75 46bc 69a3 89bb
00000050: a8be 073d 9204 9c3c 296e 1fbc 6ced d1bb
00000060: bb42 d7bc 347c 1c3c 4475 48bd a598 723c
00000070: d36f 5bbc 462b 97bc 49da d63c d406 ddbb
00000080: 2631 6c3c dd31 0cbc 2cac 39bc b703 73bc
00000090: 5124 b33c 9baf 4a3c eba5 43bc f6e1 b73c
000000a0: 3cd2 8c3c efbd c63b 8ee5 b1bc ea67 01bd
000000b0: 0888 fbba 1e6c 163b 5bf0 a93c 5c95 cebc
000000c0: 131c 223d 2533 af3c c860 bbbc f4c6 bebc
000000d0: 1a4b fcbc b462 b63c d185 273d c39f 953c
000000e0: 75ca 34bd 223a 073c 2162 893c 4181 dbbc
000000f0: edcf 683c 97e7 3c3a c22a 08bd 0aa8 8d3c
00000100: 3679 0939 a63c 963c d19d 463c 0b21 26bd
00000110: 5161 babc 07a4 f2bc df5b aabc c473 cb3c
00000120: e0c1 e0bb abf0 073d bae0 09bd d7c1 4dbc
00000130: 9527 9d3b bc4f 103d 274b b5bc 46e2 9b3c
00000140: 009d e5bb be05 ae3b 3b29 acbc 5542 7dbc
00000150: bed2 173c 81f7 4bbc 6579 c7bb 9ae6 c53c
00000160: 7d31 ec3c 840f a53c 96b7 f83c 61c8 323c
00000170: fd65 f8bc de3f 093c 5735 10bd 20b4 24bb
00000180: 5d68 0abd 0e96 b9bc 8bec 363b 9499 153b
00000190: fa73 34bd d31a 733c d6e8 b7bc 5393 28bd
000001a0: 7958 04bd e00b f93a 1c9e 253d fe35 e9bc
000001b0: 7c9c c03c bb5f 57bc a6d7 82bc 62d5 903c
000001c0: 03ae 2dbc 067d dcbc 6578 a53c 174f 053d
000001d0: cf6e 4ebb fe3d 313c 85b2 a13b 7996 83bc
000001e0: c4ba fbbc 8e44 c9bc 9263 843b 92d1 e6bc
000001f0: 50b5 c9bc b42b 21bc a639 063d 75d0 313d
00000200: 019f 733c 3f28 46bc 75d3 ca3b 06aa d53c
00000210: f41a f8bc 65fe 4bbd e664 ffbb 457f edbc
00000220: d52f 31bc 8f2f bdbc d48c 243d 0ba9 803c
00000230: 7f07 623b 6d42 05bd b757 81bc f628 5bbc
00000240: c2a9 383d 2be4 073c 805d a13c f91a 18bc
00000250: 6712 843c a69a e6bc e398 0b3c df8b 813c
00000260: e81c fd3b 8a54 813c d3e8 9b3c 0d18 ca3c
00000270: 2915 7c3b e6f6 46bc 367c 3dbc a16e b5bc
00000280: da53 40bc b27c dfbb 2c57 29bc e790 1cba
00000290: 9068 ccbb c1c4 26bd afee a13b 4dfd dabc
000002a0: c4bd e1bc 7787 e1bc 99d7 463b 466d 9e3c
000002b0: 4149 86bc 7a77 a5bc a4d6 36bc 4979 5d3d
000002c0: 881a a73c d969 753c 71fb 0a3d 58c1 683c
000002d0: af80 77bc 912c 00bd 0294 5abc 0496 21bd
000002e0: f1af 89bb 7c69 ef3c 7558 e9bb 3319 cfbc
000002f0: d0be 82bc 1be3 643c 8bc5 d93c a32f 38bd
00000300: a157 8f3c 0969 da3c 4ed8 1a3d 24c6 abbc
00000310: a32b 06bc d497 c63c 8870 51bc acb1 adbc
00000320: a5a7 d83b a910 cbbb 2aa5 d9bc 9a6a 45bc
00000330: 62f3 09bc 4ac8 a6bc 5271 d1bc cbe9 a73c
00000340: 25c8 dcb9 4548 59bc 792d 1d3c ac4d c23c
00000350: 92da 45bc 2c53 b1bc cc75 c83c 179b 3bbc
00000360: 911f 993a f897 933b dcd9 553c 2bac bdbc
00000370: ec92 233c 3f71 ab3c 1916 0d3d 42a9 053d
00000380: a246 973c e3a2 1d3d 9333 42bb f40e 163d
00000390: 79be d5bb 9ef5 7d3c be4f 243d e3dc 6a3b
000003a0: 73f4 0ebd d350 0c3c 4d64 67bc 11ab 973b
000003b0: 0eed cb3c 0fe9 f6bb 0180 b13c eb7d dc3c
000003c0: 735c 21bc f55d 46ba 1503 f33c 4f49 aebc
000003d0: acba 2d3c 42fc cd3c 2716 b23b e7eb 2bbb
000003e0: d116 abbc b91b 5fbc f98d 85bc 5c8a bf3c
000003f0: bf88 63bd 668d c0bc 3697 eebc 257e 913b

fc1.bias f4 [128]
0.023364428 -0.009766852 0.029739652 0.023979563 0.003964172 -0.010980803 0.016176676 -0.015457488
-0.010339 -0.0009942604 -0.004827906 0.01939541 -0.027730748 0.005525142 0.015337205 -0.0017035427
0.023135835 0.008810008 0.0059649977 -0.032636333 0.0028566169 0.00026967798 -0.02691366 -0.021018406
0.011589894 -0.015861357 -0.010764293 0.031037558 0.029721912 0.0023025584 0.0013018432 0.008259327
0.015262888 0.03020884 -0.029832568 0.025401544 -0.029121531 -0.008842557 -0.025336692 0.016481891
0.0070657907 0.033747766 0.032674883 0.024927342 0.024948807 -0.020138396 -0.01491081 0.01813986
0.028859079 -0.005911989 -0.016742893 0.023878194 -0.006755007 0.0006645958 0.007137784 -0.016906356
0.026708763 0.028356021 0.012403141 0.022977596 -0.022719624 0.005302926 -0.016250946 0.0019432461
0.032180097 -0.030730741 -0.01666459 0.024235077 -0.019234806 0.0059607127 0.021837033 0.02012427
0.03472279 0.034969218 -0.027782032 0.011806029 0.015887618 -0.0034574047 -0.004144207 0.014558763
0.032100037 -0.0014629681 0.015589175 0.004712327 -0.018928997 0.021692026 0.031959 0.014934896
-0.015997157 -0.033499125 0.039466362 -0.015978279 0.012905114 -0.021858828 -0.035506204 0.014120269
0.0116994465 -0.0016768046 0.0016289931 0.014198459 0.005426894 -0.006462954 -0.021427708 0.036053043
0.014324199 0.017212577 0.0025283133 0.00639729 -0.018077388 -0.012477257 -0.0005355764 -0.002850091
-0.0041845418 -0.009059813 0.023708986 0.02431108 -0.007951954 0.010234865 0.008450165 -0.019932201
-0.025694374 -0.02050849 0.013298097 -0.024748752 0.0036715185 -0.010296622 0.029860275 0.033458523
00000000: c266 bf3c 2505 20bc 92a0 f33c ca70 c43c
00000010: e3e5 813b d3e8 33bc f384 843c 6741 7dbc
00000020: e964 29bc d851 82ba 6933 9ebb 1fe3 9e3c
00000030: 982b e3bc 400c b53b e648 7b3c 6849 dfba
00000040: 5d87 bd3c da57 103c 0776 c33b adad 05bd
00000050: 1436 3b3b 9163 8d39 097a dcbc cb2e acbc
00000060: 8ae3 3d3c adef 81bc b85c 30bc 7a42 fe3c
00000070: 5e7b f33c 85e6 163b 9ca2 aa3a 2152 073c
00000080: 3111 7a3c 8778 f73c 6e63 f4bc e616 d03c
00000090: 4790 eebc 5fe0 10bc e58e cfbc 0805 873c
000000a0: 2688 e73b 193b 0a3d 19d6 053d 6d34 cc3c
000000b0: 7161 cc3c 47f9 a4bc 784c 74bc 0b9a 943c
000000c0: e069 ec3c 5cb9 c1bb 6428 89bc 349c c33c
000000d0: 1b59 ddbb 4538 2e3a 12e4 e93b 337f 8abc
000000e0: 56cc da3c e34a e83c 8b36 4b3c 833b bc3c
000000f0: 811e babc 2bc4 ad3b b420 85bc 85b4 fe3a
00000100: 47cf 033d 09bf fbbc 2e84 88bc a488 c63c
00000110: 5092 9dbc 1552 c33b 94e3 b23c a7db a43c
00000120: 7c39 0e3d e23b 0f3d 2597 e3bc 136e 413c
00000130: c026 823c a095 62bb 21cc 87bb e187 6e3c
00000140: 547b 033d 10c1 bfba bd69 7f3c dd69 9a3b
00000150: fc10 9bbc 7ab3 b13c 71e7 023d 7eb1 743c
00000160: 780c 83bc 6136 09bd 7ba7 213d e1e4 82bc
00000170: f96f 533c 4911 b3bc f46e 11bd b358 673c
00000180: 09af 3f3c 3ac8 dbba f083 d53a a7a0 683c
00000190: 16d4 b13b 30c7 d3bb 2989 afbc 5bac 133d
000001a0: 0cb0 6a3c 6401 8d3c 0fb2 253b 5ca0 d13b
000001b0: 0817 94bc 696d 4cbc ec65 0cba 98c8 3abb
000001c0: 7b1e 89bb 9c6f 14bc 5939 c23c 0828 c73c
000001d0: ea48 02bc 23b0 273c 9072 0a3c db48 a3bc
000001e0: 027d d2bc 6c01 a8bc 43e0 593c e5bd cabc
000001f0: dc9d 703b 2ab3 28bc 899d f43c ce0b 093d

fc2.weight f4 [6, 128]
0.030937122 -0.07855096 -0.08396098 0.014249475 -0.058449782 -0.017574849 -0.11341184 0.012269114
0.051973056 0.039165966 -0.04349002 0.00982115 -0.0019948427 -0.019864552 0.0067981817 -0.01607928
-0.020670492 -0.00734986 0.0435127 -0.048127577 -0.07542952 -0.08032762 -0.08893697 -0.057949934
0.013683231 0.021913698 -0.023398414 -0.045987543 0.018547771 0.08268624 -0.0793306 -0.019637499
0.050194778 -0.02987374 -0.035334807 0.09072937 -0.07491205 -0.083412245 -0.046723578 0.02623076
0.041505992 0.041415546 -0.030517451 -0.067313425 0.054569513 0.051779434 -0.062346093 -0.050559726
-0.08668391 0.09317319 0.076724134 -0.05972825 0.057696022 0.016730553 -0.06465336 -0.06821731
-0.11438123 -0.050969534 0.08953744 -0.021717349 -0.006476322 -0.04891044 -0.063329995 0.045823764
0.086448535 -0.001204062 -0.04942358 0.025073888 -0.0021344486 0.060569905 -0.04859463 -0.0008706354
0.09373221 -0.09323188 0.054000586 -0.08554169 0.04614857 0.083148174 -0.097556755 0.002138421
-0.053508244 -0.032677017 0.08244525 -0.07924585 -0.027057894 -0.0022818714 -0.085466586 0.07458776
0.048937522 0.07150575 0.024349935 -0.062312502 -0.04032047 -0.025083514 -0.06602488 0.05548864
0.034717344 0.08747708 -0.002451294 0.02930355 0.051631883 0.10948459 -0.08611927 0.055997778
-0.000650368 -0.05272535 -0.03250867 0.07129925 -0.060826577 -0.036834862 0.015909502 -0.06541809
0.0378119 0.016244702 0.10993913 -0.010470702 -0.019984677 -0.053036515 0.03235407 -0.039070588
-0.036171213 -0.037660137 0.016322577 -0.025988646 0.016748523 -0.015500869 -0.013185269 0.051052574
-0.06769718 0.011495341 0.014388272 -0.07143787 0.043355677 -0.064119585 -0.02983213 0.02374898
-0.018974155 -0.08073174 0.030224629 -0.1056877 -0.02821127 0.06542782 -0.04585988 -0.007856778
-0.08821869 0.05394147 -0.03522067 -0.003973677 0.056442857 -0.087334245 -0.0599758 0.07811381
0.05673959 -0.0488924 -0.07651084 0.06276732 0.048945587 0.03889097 -0.03481079 0.045722216
-0.02052589 0.044374563 0.05228021 -0.0063408306 0.008763903 -0.008057781 0.008333785 -0.04592579
-0.051724162 0.022208871 -0.06311496 -0.0699245 -0.01128683 -0.0022965649 -0.009609578 0.085212566
0.054648746 -0.0669216 0.014091484 0.058905736 0.054682605 -0.0068698376 0.053556517 -0.0089267185
0.04658882 -0.024986792 0.065395825 -0.004850652 0.038385212 0.045403443 -0.073379405 -0.065818764
0.012806032 -0.026465558 0.03316652 0.06404051 0.005058343 0.024488322 0.076181285 0.046504807
-0.05892786 0.051693365 -0.05356093 -0.08080366 0.085307814 -0.05857338 -0.032815296 -0.056732297
0.027466083 -0.017853355 -0.072124526 -0.006466684 0.08557697 -0.044140603 0.054446362 0.04291781
0.031153532 -0.077479266 -0.093511276 -0.1024118 -0.040377546 -0.096971564 -0.014764263 -0.068928346
-0.052782807 0.03706772 0.07183728 0.059723727 0.029709142 0.02773601 -0.045990832 -0.058746245
-0.014788302 -0.0075544515 0.0446309 0.06922124 -0.09049665 0.0063183606 -0.05470952 0.009851133
-0.03285298 0.069215454 -0.05916867 0.024502546 0.008126315 -0.012141238 0.061499927 -0.05618957
0.0042607733 0.05727951 0.06839482 0.0730889 0.074983075 0.07904659 -0.0065720105 -0.029431764
00000000: d96f fd3c 53df a0bd bcf3 abbd a176 693c
00000010: 0a69 6fbd 21f9 8fbc 7744 e8bd 6504 493c
00000020: b3e1 543d 7e6c 203d 9722 32bd e4e8 203c
00000030: e8bb 02bb fcba a2bc 48c3 de3b b2b8 83bc
00000040: 2a55 a9bc 18d7 f0bb 5f3a 323d 6c21 45bd
00000050: cb7a 9abd cf82 a4bd 9624 b6bd e95c 6dbd
00000060: a12f 603c 5b84 b33c 08ae bfbc 6f5d 3cbd
00000070: 7ff1 973c 6757 a93d 1578 a2bd d2de a0bc
00000080: 0a99 4d3d c6b9 f4bc 3bbb 10bd 52d0 b93d
00000090: 7d6b 99bd 0ad4 aabd 3961 3fbd e4e1 d63c
000000a0: 3002 2a3d 59a3 293d bcff f9bc 9fdb 89bd
000000b0: 4884 5f3d ac16 543d 9e5e 7fbd b717 4fbd
000000c0: 5587 b1bd 96d1 be3d 8b21 9d3d 9ca5 74bd
000000d0: aa52 6c3d 830e 893c fb68 84bd 84b5 8bbd
000000e0: b540 eabd 6ec5 50bd 685f b73d 95e8 b1bc
000000f0: 5437 d4bb 5056 48bd 28b3 81bd b3b1 3b3d
00000100: ee0b b13d 9ed1 9dba 6170 4abd c167 cd3c
00000110: 1be2 0bbb 2618 783d 2a0b 47bd 5a3b 64ba
00000120: acf6 bf3d 5bf0 bebd b82f 5d3d 7b30 afbd
00000130: 4806 3d3d 9749 aa3d d6cb c7bd c024 0c3b
00000140: 762b 5bbd 56d8 05bd 0ed9 a83d a64b a2bd
00000150: 84a8 ddbc 738b 15bb 1b09 afbd 78c1 983d
00000160: b672 483d 9b71 923d 8479 c73c 653b 7fbd
00000170: 1427 25bd f17b cdbc 0d38 87bd 0e48 633d
00000180: c633 0e3d 2f27 b33d e4a5 20bb 000e f03c
00000190: f47b 533d 7539 e03d 4d5f b0bd ed5d 653d
000001a0: 757d 2aba 89f6 57bd d027 05bd 5705 923d
000001b0: 4a25 79bd 27e0 16bd a554 823c ebf9 85bd
000001c0: a7e0 1a3d 9c13 853c c427 e13d 4f8d 2bbc
000001d0: e8b6 a3bc d13c 59bd b485 043d 7b08 20bd
000001e0: 4428 14bd 8441 1abd edb6 853c 24e6 d4bc
000001f0: 3334 893c 5bf7 7dbc 0707 58bc 811c 513d
00000200: d2a4 8abd f456 3c3c c9bc 6b3c 054e 92bd
00000210: b995 313d 2151 83bd 8362 f4bc 398d c23c
00000220: b06f 9bbc af56 a5bd a499 f73c cb72 d8bd
00000230: 521b e7bc 05ff 853d 92d7 3bbd b7b9 00bc
00000240: 00ac b4bd bbf1 5c3d 8d43 10bd 9e35 82bb
00000250: a030 673d 4cdc b2bd 2fa9 75bd 22fa 9f3d
00000260: c667 683d 6643 48bd b7b1 9cbd 278c 803d
00000270: 2b7b 483d 234c 1f3d c295 0ebd 3847 3b3d
00000280: e925 a8bc 1ac2 353d c623 563d bec6 cfbb
00000290: 7996 0f3c c804 04bc 6e8a 083c ae1c 3cbd
000002a0: b7dc 53bd 61ef b53c 6b42 81bd 9434 8fbd
000002b0: 65ec 38bc f781 16bb 7e71 1dbc ed83 ae3d
000002c0: 5dd7 5f3d 310e 89bd f8df 663c 2447 713d
000002d0: defa 5f3d 601c e1bb 145e 5b3d 5f41 12bc
000002e0: ebd3 3e3d 1ab1 ccbc 3fee 853d 38f2 9ebb
000002f0: d039 1d3d f6f8 393d f147 96bd fdcb 86bd
00000300: 64d0 513c 4cce d8bc 9ed9 073d ac27 833d
00000310: 75c0 a53b bc9b c83c ef04 9c3d d37b 3e3d
00000320: 575e 71bd 6cbc 533d b562 5bbd 647c a5bd
00000330: ddb5 ae3d a4ea 6fbd 5569 06bd 2060 68bd
00000340: 8d00 e13c 3341 92bc 06b6 93bd 7ae6 d3bb
00000350: fa42 af3d c7cc 34bd 2603 5f3d 96ca 2f3d
00000360: b135 ff3c 73ad 9ebd d782 bfbd 47bd d1bd
00000370: ed62 25bd 0799 c6bd cfe5 71bc 4e2a 8dbd
00000380: c932 58bd 52d4 173d 6d1f 933d dea0 743d
00000390: 9660 f33c a136 e33c e260 3cbd e79f 70bd
000003a0: a24a 72bc 558b f7bb e4ce 363d dec3 8d3d
000003b0: 4f56 b9bd 400a cf3b 1717 60bd a666 213c
000003c0: d990 06bd d5c0 8d3d d95a 72bd 90b9 c83c
000003d0: 3c24 053c 0bec 46bc 59e7 7b3d 0927 66bd
000003e0: f59d 8b3b eb9d 6a3d 9512 8c3d a2af 953d
000003f0: ba90 993d 2ee3 a13d 055a d7bb e21a f1bc

fc2.bias f4 [6]
0.040119335 -0.04627749 0.0320828 -0.07327356 0.066615075 -0.047900066
00000000: 2c54 243d 778d 3dbd 4169 033d 7310 96bd
00000010: 7c6d 883d dc32 44bd
