prod/modelNumber.pth (torch, 396912 bytes, 4 tensors)

fc1.weight f4 [128, 768]
000000 a4 37 fc bc 71 20 13 bc b6 86 14 bd 10 6a 94 bb
       -0.03078825 -0.008979903 -0.036261283 -0.004529245
000010 60 b9 5a 3c f9 17 85 3b cb 13 20 3c e1 f0 f6 3b
       0.013349861 0.0040616957 0.009770344 0.007536039
000020 99 da d2 bb eb b9 a0 39 38 89 cf 3b 08 ff 2f bd
       -0.0064347503 0.00030656098 0.0063334964 -0.042967826
000030 4e 43 0d 3c 3d 47 50 bc 84 ad 45 bc 04 15 af 3b
       0.008622004 -0.012712297 -0.012065295 0.0053430814
000040 75 e0 7b bb e9 12 ac 3c 08 b5 80 bc 2f 99 cf bc
       -0.0038433347 0.02100511 -0.015711322 -0.025341598
000050 f7 36 13 3d 55 37 62 bc a5 46 fe bb fe 2a d9 bc
       0.03594109 -0.0138071375 -0.0077598863 -0.026509758
000060 11 76 64 3c 9e 32 90 3c 4b 4d b0 3c 61 8f 15 3c
       0.013944165 0.017602261 0.021521231 0.0091284225
000070 b5 cd 32 bc 56 f2 f2 3b e9 dc ae bc 8d 11 a8 bb
       -0.010913302 0.0074141426 -0.021345573 -0.0051290453
000080 1a e3 16 bc fc 47 93 bc 31 5c 3d bc 72 f8 91 3b
       -0.009209419 -0.01797866 -0.011557625 0.004454666
000090 65 3e 93 3b db 82 c5 3b b2 69 9e 3c 6f dc 8a 3c
       0.004493522 0.006027562 0.019337509 0.016950814
0000a0 a0 36 3d 3c e5 66 71 3c 92 e8 a5 bc e1 9f 8c 3a
       0.011548668 0.014734005 -0.0202525 0.00107288
0000b0 44 69 d9 3c ad 70 9c bc 32 86 0b bc 09 3d 7c bc
       0.026539452 -0.019096697 -0.008515881 -0.015395411
0000c0 0e 94 54 bb 7b 61 ab 3c e4 d5 36 3b 01 69 77 3b
       -0.003243688 0.020920506 0.0027898485 0.0037751796
0000d0 22 c5 ea 3c 86 7d 98 3b d9 9a ad bc 0a 18 50 3c
       0.028658453 0.0046536354 -0.021192001 0.012701044
0000e0 d8 8e d8 3b b6 fb 1b bd 57 9d 45 bc 86 c8 2b 3c
       0.006608825 -0.038081847 -0.0120614385 0.01048482
0000f0 b1 2f 03 bc 69 7c 1c bd 84 ec d4 bb 07 99 49 3c
       -0.008006976 -0.038204584 -0.0064979214 0.012304551
000100 89 e3 ae 3b bf 6a 9d 3b 82 cd d4 3b 9d ab ac bb
       0.005337183 0.004803985 0.006494225 -0.0052694813
000110 8c 4d ba bc 37 64 93 3b ca 7d 34 3c 0f 70 a2 3c
       -0.022742055 0.0044980305 0.011016319 0.019828824
000120 14 b4 07 3d d1 0b 1b bd 68 47 f4 3b ab b5 88 3c
       0.03313072 -0.037853066 0.0074548014 0.016688189
000130 32 f4 94 bb 0b 62 5d bc 9b 8a 22 3c 26 de 0e 3c
       -0.004545712 -0.013512145 0.009920741 0.0087199565
000140 2b c0 af bc cb 7e ed 3c 97 fc a1 bc e2 c3 b8 3b
       -0.021453938 0.028991124 -0.019773765 0.0056385854
000150 0e 6f e0 bc 53 1c 7e bc 5f cd 9d 3c 9a 74 10 bd
       -0.027396705 -0.015509683 0.019262968 -0.03526745
000160 2b a0 aa 3b b5 3c 7f bc 95 5c 5c bc 89 9e 16 bd
       0.005207082 -0.0155784385 -0.013449808 -0.036772285
000170 57 88 01 bc 55 b9 2a 3c cd 7c f9 bb f3 4a 79 bb
       -0.007906041 0.010420163 -0.0076137544 -0.0038039058
000180 55 36 58 bc da 86 27 3c ff 57 ed 3a 84 f6 e8 bc
       -0.0131965475 0.010225022 0.001810789 -0.02843786
000190 fb f7 8c 3c 7d f0 ce 3c 88 42 b7 bc 1d 03 51 3c
       0.01720809 0.025261158 -0.022370592 0.01275709
0001a0 04 19 42 bb 99 40 ea 3c fb 03 7f bc d8 ee 22 3c
       -0.0029616961 0.028595256 -0.015564914 0.00994464
0001b0 ef 96 5b bc da 5d de 3c c5 52 6e bb 3b 10 53 3c
       -0.013402685 0.027144361 -0.0036365252 0.012882288
0001c0 23 b5 28 3c df 0f 49 bc 22 37 65 3c 21 9a d4 3b
       0.010297093 -0.01227185 0.0139901955 0.0064881
0001d0 1f d3 ba bc f8 a2 e4 3c ea 3d 85 3c 42 f4 89 bb
       -0.022805749 0.02790974 0.016264874 -0.004210026
0001e0 1a 1c af 3c 2e a8 be 3b 65 f0 84 3c d1 05 b4 3c
       0.021375705 0.0058183884 0.01622791 0.02197543
0001f0 f6 2e a4 3b a3 28 cb 3a 9b 8c bc 3b 3f a3 4d bc
       0.005010481 0.0015499782 0.005754066 -0.012551128
000200 20 e7 33 bc 5f 0f 3b bc ef f4 15 3d 62 66 ed bc
       -0.010980397 -0.011417239 0.03661054 -0.028979484
000210 8e 8d b0 bc 62 19 49 3c af 10 10 bd d7 41 aa 3c
       -0.021551874 0.012274118 -0.03517216 0.020783348
000220 02 0e e8 3c 7b d5 b0 3c 62 95 22 3c 1d 39 ba 3c
       0.028326992 0.02158617 0.009923311 0.022732312
000230 28 78 5e bc 40 03 6b 3c 55 4e a0 bc 1b 96 46 bb
       -0.013578452 0.014344037 -0.019568602 -0.0030301872
000240 dd 78 84 3c c6 88 a1 3c ac 13 06 bd 95 7c 0a 3c
       0.016170913 0.019718539 -0.032733604 0.008452554
000250 a9 62 da 3c 28 75 0b 3d 97 50 b2 3c 39 3c bb bb
       0.026658373 0.034047276 0.021766944 -0.005713966
000260 12 85 cc 3b 16 51 d3 3a 12 e7 97 3c 75 06 57 bc
       0.006241449 0.0016122188 0.0185428 -0.013124098
000270 bb 4c 67 3c 32 b3 11 bd 51 ea 1c bc 17 a9 50 3c
       0.014117415 -0.035571285 -0.00957735 0.012735627
000280 95 ff a4 bc b2 0f ca 3c 57 ca 85 3c 6c 0b 93 bc
       -0.020141402 0.024665687 0.016331835 -0.017949782
000290 0c 06 da 3c 29 7a 46 3c f4 27 02 bd b7 f8 eb 3c
       0.026614211 0.012114086 -0.031776384 0.02880512
0002a0 b4 9f 90 3c 57 cf 85 3c 17 91 58 3b fc 8c cb 3c
       0.017654277 0.016334219 0.0033045465 0.0248475
0002b0 be 6f 33 bc e6 86 6e bc 78 c0 91 3c 6b 86 e1 3c
       -0.010951934 -0.0145585295 0.017791972 0.027529916
0002c0 24 67 ad 3c 31 6f 60 bc dc f0 ee 3c 60 05 76 3c
       0.021167345 -0.013698385 0.029167585 0.01501593
0002d0 b9 41 d7 3c ef 3f f0 ba 66 0d 94 bc c4 09 1b 3c
       0.026276456 -0.00183296 -0.018072795 0.0094627775
0002e0 27 76 5c 3c 36 75 ac 3c 06 fe bc bb 6f 18 f5 3b
       0.013455904 0.021051984 -0.0057675866 0.0074797194
0002f0 15 94 d8 3c d3 0d fa 3c 17 91 99 bc 1c 98 6c 3c
       0.026437799 0.03052417 -0.018745942 0.014440563
000300 20 59 58 3c ba fb 11 3d 2b 59 3e 3c f3 48 d1 3c
       0.013204843 0.035640456 0.011617939 0.02554748
000310 73 7c eb 3c 7e d9 08 3b c3 61 5a 3c 34 56 c7 bc
       0.028745865 0.0020881589 0.013328972 -0.024333097
000320 5c 74 4e 3c 86 fa 48 3c 1d 29 af bc c6 aa 86 3c
       0.012600984 0.012266761 -0.021381909 0.016438853
000330 ac 91 69 bc c2 94 f9 39 7b 96 6c 3c 75 a8 8b bc
       -0.014255922 0.00047603814 0.014440174 -0.0170481
000340 21 07 e5 bc b2 24 1b 3c 43 69 85 3c 46 79 c0 3b
       -0.0279575 0.009469198 0.016285544 0.005873832
000350 61 04 92 bb 7b 4c a1 bb dd 63 9e bc 9c af 17 3d
       -0.0044560884 -0.0049224473 -0.019334728 0.03703271
000360 17 93 11 3b 86 9c f2 3a 79 c7 05 3b 34 69 fa 3b
       0.0022212917 0.0018509782 0.0020413084 0.0076419357
000370 4f 79 f0 3b f6 a3 0f 3c 43 ab b9 3c 08 84 7b bb
       0.00733868 0.008767119 0.022664672 -0.0038378257
000380 fd 5f b2 bc d2 e3 10 bd af e0 8d bc 82 5e ef ba
       -0.021774286 -0.035373516 -0.017319052 -0.0018262418
000390 ca 7f 20 39 15 6b df 3b 02 24 9b 3b c0 da 69 3c
       0.00015306394 0.006818185 0.004734517 0.0142733455
0003a0 aa 71 34 3a 32 6d ae bc 45 4d bd 3c a2 37 a2 bc
       0.00068833923 -0.021292303 0.023108134 -0.019801918
0003b0 1b 50 ac bc fb df 7f 3c 57 f8 a1 bb 81 7a 2a bd
       -0.021034291 0.015617366 -0.0049429345 -0.041620735
0003c0 aa 48 78 3c c3 92 5b 3c bb 69 24 3c b3 83 f7 bb
       0.015154043 0.01340169 0.010034974 -0.0075535416
0003d0 3a a8 f4 bc 77 c4 d1 3a cc d6 85 3b 96 ab 0d 3b
       -0.029865373 0.0016003986 0.0040844437 0.0021617166
0003e0 91 92 e0 ba 4a 0b 0e 3d 8d 7f 83 3c 1d 2c 71 3c
       -0.0017133524 0.034678735 0.016052032 0.01471999
0003f0 cf bf a3 3c 4f d8 cf bc 1b c9 80 3c 42 3b 60 bc
       0.019988922 -0.025371699 0.015720895 -0.013686003

fc1.bias f4 [128]
000000 4d 0a 78 3b a5 42 a4 3b 5c 9f 14 3c 6f c4 84 bb
       0.0037847937 0.0050128275 0.009071197 -0.004051737
000010 e3 20 13 bb 54 28 6f 39 fa 84 a4 b9 93 dd 56 bb
       -0.0022450022 0.0002280784 -0.00031379593 -0.0032785877
000020 40 58 05 00 47 9e 53 b8 1f ec 71 bb ba 8b 18 ba
       4.90836e-40 -5.0453727e-05 -0.003691442 -0.0005819161
000030 04 ef 64 bb 7e 9c 98 3b 24 00 10 3c 3c 1d e8 0d
       -0.0034932503 0.004657327 0.008789096 1.4305142e-30
000040 c9 d5 c2 39 26 38 89 b9 4d 2b 15 3c 0f 48 ae 3c
       0.00037161846 -0.0002617251 0.009104562 0.021274595
000050 c0 15 d1 39 f9 7c 5c 3c 42 26 eb 3b 30 16 b6 3b
       0.0003987979 0.01345753 0.0071761915 0.005556844
000060 c8 20 45 bc a9 cd 28 3c 7e 1f 30 ba c4 79 af 3a
       -0.012031741 0.010302939 -0.000671856 0.0013387729
000070 80 93 90 3b 7b 78 90 3a 97 14 a8 bb 1f cc a6 b7
       0.0044121146 0.0011022234 -0.0051294076 -1.9883793e-05
000080 1c 06 89 3b ee 6b 73 3b 77 9b 8b 3c 89 a0 90 ba
       0.0041816365 0.0037143189 0.017041905 -0.0011034171
000090 c9 60 7d 3c b9 b9 86 3a d2 3a 80 bc 56 02 da 3a
       0.01546497 0.0010278738 -0.015653048 0.0016632776
0000a0 21 61 ef ba 0b 96 1c bc 4a 41 a5 3a c7 89 83 bb
       -0.00182632 -0.009557257 0.0012607959 -0.004014227
0000b0 6c fe 8a 3b ba 65 ab 3b 32 ec 0a bc 8a dd d5 3b
       0.004241755 0.0052306326 -0.008479165 0.0065266537
0000c0 ab 55 a5 3a ec 49 a7 b8 2b 40 df bb 4f ec 0f 3b
       0.0012614032 -7.9769496e-05 -0.0068130693 0.002196092
0000d0 f9 f2 2b 38 f9 22 d3 ba 5a 33 a4 3b 50 88 1b 3a
       4.0995863e-05 -0.0016108445 0.0050110044 0.0005933093
0000e0 fd db cc 39 c5 9a 4c 3c 4e ee 5f bb d6 7c 13 bc
       0.00039073816 0.012488072 -0.003416914 -0.009001931
0000f0 5c 94 5b 39 67 1b d3 39 ae 47 34 3b f3 ff 0a 37
       0.00020940736 0.00040265472 0.0027508545 8.285034e-06
000100 e7 66 d7 ba 63 41 97 39 10 c0 3d 3a 0c a4 24 bb
       -0.0016433866 0.0002884968 0.00072383974 -0.0025122194
000110 3c 0c 01 bc ba 96 0e b9 c5 c3 d6 ba 4f 69 d3 3c
       -0.007876452 -0.00013598325 -0.0016385248 0.025807051
000120 dc ce 3e 3c 83 ee 06 bc 8b 03 fd 39 a7 43 c8 bb
       0.011645999 -0.008235577 0.0004825856 -0.0061115804
000130 da b6 f4 ba ae 80 1b 3c 4a 28 12 bc 74 30 0a 3c
       -0.0018670217 0.009491129 -0.0089207385 0.008434404
000140 b8 75 26 3b 46 47 81 bb bc f4 2b 3c 77 d5 5d 3b
       0.0025399756 -0.003945264 0.010495361 0.0033849159
000150 f8 2b 49 3b 50 03 3b 3b 8f 5c 3e 39 e3 de ca 39
       0.0030696373 0.002853591 0.00018154293 0.00038694506
000160 85 fa 14 37 16 2f 6a 3c 4e fe 15 3b 8a 1b e0 ba
       8.879816e-06 0.014293453 0.0022887173 -0.0017098051
000170 fa 2e 82 3a 3d a3 9d bc ce 2c 85 3c 0a 15 20 3b
       0.0009932213 -0.019242877 0.016256716 0.0024426603
000180 cf 98 2b bc 54 86 c9 3b ce 92 6a 3b f4 de 83 b9
       -0.010473444 0.0061500464 0.0035793069 -0.0002515238
000190 9a 5a 1b 3c 35 c1 58 bb c6 aa 8b bc df a1 04 3b
       0.00948205 -0.0033074145 -0.017049205 0.0020238084
0001a0 0b 70 2f ba ec 13 c2 ba 75 db b8 b9 8f 0a 9f 3a
       -0.0006692416 -0.0014806963 -0.00035258723 0.0012133884
0001b0 01 80 46 3b 31 1b 13 37 83 bd 96 ba a9 f0 92 ba
       0.0030288699 8.768214e-06 -0.0011500571 -0.0011210638
0001c0 5a b6 9f bb 3b 5a 09 3b b6 8d 81 3a b3 a0 d0 3b
       -0.004874033 0.0020958323 0.0009884152 0.006366813
0001d0 67 50 78 bb 86 d0 fe bb 00 50 35 bc e1 ee 18 bc
       -0.003788972 -0.007776323 -0.011066437 -0.009334297
0001e0 7a 73 20 ba 1b 95 55 3a 72 b5 cb 39 c9 4d 0b 3b
       -0.0006120723 0.00081475236 0.00038854365 0.002125608
0001f0 8c 2f 79 3b 31 a7 38 b8 27 ec 4e bb d1 e2 a6 3b
       0.0038022725 -4.4024728e-05 -0.0031573863 0.0050929566

fc2.weight f4 [2, 128]
000000 9b 1d c8 3c a9 3d de ba 8c ee fd bc 74 ff c9 3d
       0.02442818 -0.0016955632 -0.030997537 0.09863177
000010 f6 13 a1 3b da 0a 43 bd 1e c6 7b 3d 93 e5 63 3d
       0.0049157096 -0.04761777 0.061468236 0.05563886
000020 9a a6 2e 3d b7 aa be bd 82 c6 a6 bd e4 d2 b6 3d
       0.042639352 -0.09309905 -0.08143331 0.08926943
000030 7d cd be bd ea a6 12 bd a8 82 69 ba f1 f4 44 3d
       -0.093165375 -0.035803713 -0.0008907714 0.048085157
000040 36 46 3d bb 0b c8 7d bd 54 38 c9 3d 98 19 8f 3d
       -0.002888096 -0.061958354 0.09825197 0.069873035
000050 97 01 eb bb 1b d1 a4 bd 28 43 6f bb b8 bf a5 3d
       -0.0071718204 -0.08047696 -0.0036508534 0.08093208
000060 e7 3b 31 bd 7f d8 a6 3d 1e cf 97 3c e0 0c ef bc
       -0.043270018 0.08146762 0.018531378 -0.029180944
000070 56 c3 45 3d 39 d2 d2 3b 3e 72 b2 3d 4d 60 3d bd
       0.04828199 0.006433752 0.08713196 -0.046234418
000080 a4 8c b1 bc a3 15 54 bd e3 ef 2a bc a6 cc 9b 3b
       -0.021673508 -0.051778447 -0.01043317 0.0047546206
000090 6a db 31 bd 00 69 0a bc df d7 14 bd 74 83 9a 3c
       -0.04342214 -0.0084478855 -0.036338683 0.01886151
0000a0 03 25 68 bd 9a 80 26 3d d5 99 0e 3d 41 1a 87 3d
       -0.056675922 0.040649988 0.034814674 0.065968044
0000b0 2f ff 81 3d d6 87 c8 bd b5 a2 85 bd a9 78 31 bb
       0.063475005 -0.09791534 -0.065251745 -0.0027079976
0000c0 31 1a 35 3d af a2 76 3d b2 8b a1 bd 33 2e 25 bd
       0.04421443 0.06021374 -0.07887973 -0.040327262
0000d0 95 1f 94 bd 96 e7 24 3c 6a 45 87 3d d9 e9 74 3c
       -0.07232586 0.01006498 0.066050366 0.014948332
0000e0 e6 d8 0f 3c 1c 60 a4 3d f9 4f a0 bd 2e 4d e9 bc
       0.00877974 0.08026144 -0.078277536 -0.028479185
0000f0 ac 65 10 3c 50 81 46 3d f4 c5 60 3d 6e aa da 3b
       0.008813303 0.048463166 0.054876283 0.006673149
000100 a6 7e 93 3d 53 9b d1 bb 77 4d f5 3c f1 7e b8 bd
       0.07201891 -0.00639669 0.029944165 -0.09008587
000110 eb 41 24 3d 7f a7 a6 bd b8 80 a4 bd f1 67 b1 bd
       0.040101927 -0.08137416 -0.08032364 -0.086624034
000120 4d 60 96 3d 59 f1 a8 3d fd e3 65 3d 5d 42 0d bd
       0.07342587 0.082491584 0.05612563 -0.034487117
000130 2f fd 8c bd 67 ac ac 3d b8 12 a8 3d 3d 3f a5 bd
       -0.068842284 0.08431321 0.08206695 -0.08068702
000140 ab 67 2c 3d f0 f8 f8 3c ec 39 c6 3c 1f ab aa 3d
       0.042091053 0.03039214 0.024197541 0.0833342
000150 37 19 a0 3d f1 4e b8 3c fb 07 d9 bd 40 1c 9e 3d
       0.07817309 0.02249858 -0.10597225 0.07720232
000160 a3 a8 06 bd d6 c1 9a 3d 81 96 8b bd 7b 16 ae 3c
       -0.03287567 0.075565025 -0.06815816 0.021250954
000170 07 cb 43 bd 5b 4f aa bd 0f 41 e0 bc 23 82 a5 3d
       -0.047801044 -0.08315917 -0.027374772 0.08081462
000180 2a d9 91 3d 9e 41 a4 3d a7 45 a8 bd 94 71 3a bd
       0.07121499 0.08020328 -0.0821641 -0.045518473
000190 1c 7d 89 3c 7a 06 2a 3d 1b d1 8d 3d e5 7e 89 3c
       0.01678329 0.041510083 0.06924649 0.01678414
0001a0 76 50 58 bd 8a d0 4f 3d 39 d4 59 3d d9 43 1a 3d
       -0.05281111 0.050735988 0.053180907 0.03766236
0001b0 1b 46 52 3d 17 50 a7 3d 49 12 81 bd ac cc 6b 3d
       0.05133639 0.08169573 -0.06302316 0.057568237
0001c0 01 4f 71 3d 1c 93 82 3d aa 84 3d bd cc d7 b4 bd
       0.058913235 0.06375715 -0.046269096 -0.088302225
0001d0 d8 f2 8b bd 41 da 9c bd 29 45 98 3d a5 af a3 3d
       -0.06833428 -0.07658816 0.07435066 0.07992486
0001e0 77 d7 4b 3c 81 7d 11 3d 51 56 b2 3c de 52 83 bd
       0.012441508 0.03552008 0.021769674 -0.0641229
0001f0 86 ce fe 3c 6b 77 81 3d db aa d7 3d 57 70 27 bd
       0.031104337 0.06321605 0.10530635 -0.04087862
000200 0b ce ac bd a9 94 9a 3d 47 c8 6d 3d b8 83 88 bc
       -0.08437737 0.07547886 0.058052327 -0.01666437
000210 6b 4b 45 3d 04 78 8b 3b 71 ff 7e 3b 00 c7 6d bd
       0.048167627 0.0042562503 0.003890958 -0.05805111
000220 e2 3f 24 3d 4b f1 91 bc f1 4a 27 bd 50 0b 00 3c
       0.040099986 -0.017815253 -0.040842954 0.007815197
000230 36 4e a1 3d cc 4c 1a 3a f5 f5 79 3d 70 7b 3e 3d
       0.07876246 0.00058860774 0.06102558 0.046504438
000240 7e e7 0c bd 80 9c f5 bc 62 27 eb ba 45 49 b9 bd
       -0.034400456 -0.029981852 -0.0017940814 -0.09047178
000250 fd 28 e5 3c 0c 2c 1c 3d 89 b1 50 3d 71 d0 ba 3b
       0.027973646 0.038127944 0.05095056 0.0057011177
000260 dd e9 91 3d 9e f4 42 bd 5e f0 12 bd d1 a4 94 3d
       0.07124684 -0.047596566 -0.035873763 0.07257999
000270 d2 44 b9 3d cc 55 60 bd 8f 70 1b bd 07 c5 32 bd
       0.090463296 -0.054769322 -0.03794914 -0.04364493
000280 29 75 83 3c 3d 6a 9f 3d e6 18 9f 3d 60 9d 5c bd
       0.016047077 0.07783935 0.07768421 -0.053861022
000290 6c 06 78 3d 8b da 82 3d 61 93 85 3d 98 dd 59 3d
       0.060553 0.0638934 0.06522251 0.053189844
0002a0 0e 36 31 3c 3d a4 6c bc cf c1 ce 3d f9 0a 47 3c
       0.01081611 -0.014443454 0.1009556 0.012148612
0002b0 39 0b 68 bd 26 47 46 bd 4f de 64 3d 48 bc 8b 3d
       -0.056651328 -0.048407696 0.055876072 0.06823021
0002c0 41 11 9d 3a d3 e8 00 bd 29 53 4d 3d 14 8e 08 3d
       0.0011983291 -0.03147204 0.050128136 0.03333862
0002d0 8a 02 24 bd 0e 0b 34 bd d4 5f 4e bc fd e2 36 bd
       -0.040041484 -0.043955855 -0.012596089 -0.044650067
0002e0 14 af 03 bd 63 77 05 bd 60 3a 55 bc 83 a0 34 3d
       -0.03214939 -0.03258456 -0.013014406 0.04409839
0002f0 72 2b 9d bc bb c0 98 3d 2d 32 b3 bb 65 85 98 3c
       -0.019185755 0.074586354 -0.005468628 0.018618295
000300 f8 9d a3 3c 5c ff c8 bc a3 5f 02 bd 14 9e b7 3d
       0.019972786 -0.024535827 -0.031829488 0.08965698
000310 c9 bd 70 bd c2 43 35 bd 0e 08 60 bd 2a bf 9e 3d
       -0.058774743 -0.044254072 -0.05469518 0.077513054
000320 15 97 58 bd 25 74 4e 3c 85 2e 89 3c 61 b9 41 3d
       -0.052878458 0.012600933 0.016745815 0.04729593
000330 da cd 90 3d 52 ad fc 3c cb 2e 9e bd a7 b5 47 3d
       0.07070513 0.030844364 -0.07723769 0.04875722
000340 a0 77 c9 3b e5 ae 95 bc a8 fc a5 3d 43 47 32 3d
       0.0061482936 -0.018271873 0.08104831 0.04352499
000350 17 33 0d 3d ae 1f 9f bc 08 29 8a bd 55 40 3f 3d
       0.03447255 -0.019424286 -0.06746107 0.04669221
000360 9d ab 86 bc d7 9b fd bc 35 dd b0 3d 5a b0 44 3d
       -0.016439253 -0.0309581 0.08635942 0.048019744
000370 d3 b1 8c 39 7f 6c 8a 3d 3d 0c 96 3d 67 b6 b2 bd
       0.0002683537 0.06758975 0.07326553 -0.08726197
000380 df a4 59 bd 2a c8 79 bc d6 9b 36 bd 74 7c 90 bc
       -0.05313575 -0.015245477 -0.04458221 -0.017637469
000390 18 f3 c4 bd 06 52 9c bd 24 92 b3 bd 4a 1b be 3d
       -0.09616679 -0.07632832 -0.087681085 0.09282549
0003a0 c2 19 b9 bd a2 cf 05 bd 9b 9f fd 3c a2 5f 9a bd
       -0.09038116 -0.032668717 0.030959895 -0.07537772
0003b0 d4 c4 b3 bd 1a 75 ab 3d b7 57 ac bb b9 98 d0 3c
       -0.08777776 0.08371945 -0.00525948 0.025463449
0003c0 f2 79 c0 3c 64 d7 5d bd f2 7c 96 bd 4d 3c 8c 3c
       0.023495648 -0.05416049 -0.0734805 0.017118597
0003d0 4c f4 d8 3c 8a 43 5b 3d 62 e2 92 bd 8d 99 27 bd
       0.026483677 0.053531207 -0.07172085 -0.04091792
0003e0 8d 41 ab bb 3d 28 02 bd b9 21 82 bd 1e 08 10 bd
       -0.00522632 -0.031776655 -0.06354088 -0.03516399
0003f0 93 82 09 bd 0f 3f a6 3d 7a 92 23 3d 70 f4 78 3d
       -0.03357179 0.08117496 0.039934613 0.06077999

fc2.bias f4 [2]
000000 77 f1 7a bd 0a 43 64 bd
       -0.061265435 -0.055727996
