prod/modelTime.pth (torch, 398944 bytes, 4 tensors)

fc1.weight f4 [128, 768]
0	0xbcd25133	-0.025673484
1	0x3ca0efaf	0.01964554
2	0xbd153102	-0.03642369
3	0xbc67bc6e	-0.014144046
4	0x3cced3e0	0.025247514
5	0x3b625557	0.003453573
6	0x3c44caae	0.012011213
7	0xbd1e6ab0	-0.038675964
8	0xbb881ff7	-0.004154201
9	0xbc80fa4f	-0.015744356
10	0x3ce26b78	0.027639136
11	0x3ced8561	0.028994264
12	0x3cc1a034	0.023635961
13	0x3c7c3e2b	0.015395681
14	0x39853c16	0.00025412504
15	0x3cfdbc24	0.030973502
16	0x3d139a9e	0.036036126
17	0x3d21c05a	0.03949008
18	0x3d0758e3	0.033043753
19	0x3d116675	0.0354981
20	0x3d0be6d0	0.034155667
21	0xbd491ba2	-0.04909862
22	0x3cd4d680	0.025981188
23	0xbb7c0a7a	-0.0038458393
24	0x3b4e3501	0.0031464698
25	0xbab9d6fe	-0.0014178453
26	0x3ceacad4	0.02866117
27	0x3cddab3f	0.027059196
28	0xbc2b7786	-0.010465508
29	0xbbeace9b	-0.0071657426
30	0x3d02c5de	0.031926982
31	0x3d004b01	0.03132153
32	0xbc0daee6	-0.008647656
33	0xb9dd8a22	-0.00042255322
34	0xbcd21bc9	-0.025648015
35	0xbbfefa22	-0.007781283
36	0x3d1b1f54	0.037871674
37	0xbd358f42	-0.044326074
38	0xbcd455f3	-0.02591989
39	0x3d5a3ddc	0.05328165
40	0x3c95f528	0.018305376
41	0x3c85a733	0.016315078
42	0x3cc0626a	0.023484427
43	0xbccddd94	-0.02513007
44	0x3cf7cf77	0.030250294
45	0x3b149bf8	0.0022675972
46	0x3cbb9b6d	0.022901261
47	0xbc073e23	-0.008254561
48	0xbaf614e6	-0.0018774539
49	0x3bcdc5a3	0.0062796636
50	0x3c28b01d	0.010295895
51	0xbc6ef878	-0.014585607
52	0xbba64183	-0.0050737276
53	0x3cb1b534	0.02169285
54	0x3bdac8b0	0.006676756
55	0x3cb955a9	0.022623854
56	0x3c2f7a97	0.01071038
57	0x3c350bb6	0.011050155
58	0x3d1efc79	0.038814995
59	0x3c9cbed2	0.019133959
60	0xbadf1cbd	-0.0017022114
61	0x3cb04bfd	0.021520609
62	0x398e0e5c	0.0002709505
63	0x3ab586d5	0.0013849387
64	0x3a3d79a4	0.00072279037
65	0x3d070f63	0.03297366
66	0xbb6c1cdc	-0.0036027944
67	0x3d00876d	0.031379152
68	0x3cc7e837	0.02440272
69	0x3cb1420a	0.021637935
70	0x3b907b36	0.004409219
71	0x3bfaac21	0.007649914
72	0xbd399468	-0.045307547
73	0x3c61039a	0.013733769
74	0xbc789381	-0.015171886
75	0xbce90618	-0.028445289
76	0xbc889eea	-0.016677339
77	0x3bb566d8	0.0055359416
78	0x3d0bae10	0.034101546
79	0x3b8bed7e	0.0042702546
80	0xbcdf6a93	-0.027272498
81	0x3c786ab1	0.015162156
82	0xbcc3c542	-0.02389777
83	0xbc1bc584	-0.009507541
84	0x3cc246d0	0.023715407
85	0xbc664d86	-0.014056569
86	0x3c057c5a	0.0081473235
87	0x3ca79ee8	0.020461515
88	0x3bc6f308	0.006071452
89	0xbc8cb03c	-0.017173879
90	0x3caed4f3	0.021341776
91	0xbbfa174d	-0.007632172
92	0x3afc931a	0.0019269914
93	0xbc9ba686	-0.019000303
94	0xbcb30142	-0.021851186
95	0xbc962a0d	-0.018330598
96	0xbce31a86	-0.027722608
97	0xbc77db04	-0.015127901
98	0xbc544a2c	-0.012957137
99	0xb9eac6b9	-0.00044780018
100	0xbcd778a9	-0.026302652
101	0x3cd9cc98	0.026586816
102	0xbd1de6e3	-0.03855027
103	0xbcb39b79	-0.021924721
104	0xbcabf629	-0.020991402
105	0x3d3190b7	0.0433509
106	0x3d2826e1	0.041052703
107	0xbcf266ca	-0.02959003
108	0x3c1237b8	0.008924417
109	0x397dd189	0.00024206018
110	0x3b5fca96	0.003414785
111	0xba519152	-0.00079943717
112	0xbd119ffd	-0.035552967
113	0x3cc3cb11	0.02390054
114	0x3a7af159	0.0009572707
115	0x3d1294b4	0.035786346
116	0xbd05797c	-0.03258656
117	0x3c3ad65b	0.011403645
118	0xbc9b57a9	-0.018962698
119	0x3cd450c0	0.02591741
120	0x3cc4d1bc	0.02402579
121	0xbceec666	-0.029147338
122	0x3c06d28b	0.008228908
123	0x3c433575	0.011914601
124	0x3c0cefa7	0.008602059
125	0x3bf96fd6	0.007612209
126	0x3ccdb7b7	0.025112016
127	0xbbc52e17	-0.006017457
128	0x3cd29103	0.025703913
129	0x3d036b2c	0.03208463
130	0x3c0d65c6	0.008630222
131	0x3ca143fc	0.019685738
132	0xbcc9622a	-0.024582941
133	0xbcf054e4	-0.029337354
134	0x3c91fcb0	0.017820686
135	0xbc79f2e4	-0.015255664
136	0xbcfc3116	-0.030785125
137	0x3c065a71	0.008200274
138	0x3d24ae00	0.040205
139	0xbc748bed	-0.014925939
140	0x3d2c54ea	0.042073168
141	0x3c9282a7	0.017884566
142	0xbb295584	-0.0025838325
143	0xbd03f335	-0.032214362
144	0xbc3c5099	-0.011493825
145	0xbc42a273	-0.011879551
146	0x3a8efc3e	0.0010908914
147	0xbbd8a4cc	-0.006611442
148	0x3ce69cb4	0.028150894
149	0xbc8b7e65	-0.017028043
150	0x3cec9d57	0.02888362
151	0xbd40006f	-0.046875414
152	0xbcc65ec6	-0.024215113
153	0xbc6058ad	-0.013693017
154	0x3b35e42b	0.0027754407
155	0x3d038115	0.032105524
156	0x3cee286e	0.029072013
157	0x3c2ba371	0.010475979
158	0xbbe22714	-0.006901631
159	0x3b2db9de	0.002650849
160	0x3ce447d6	0.027866285
161	0xbc64e6f4	-0.013971079
162	0xbc71098f	-0.014711752
163	0x3c923774	0.017848708
164	0xbcc9311c	-0.02455955
165	0xba6a6ad0	-0.0008942308
166	0x3c974f2c	0.01847037
167	0xbc1c2c57	-0.009532056
168	0x3d0f8175	0.03503557
169	0x3cb4e4b0	0.022081703
170	0xbb71e22f	-0.0036908498
171	0x3d216630	0.039404094
172	0xbbca76f5	-0.0061787316
173	0xbc9ca613	-0.01912216
174	0xbceba263	-0.028763955
175	0xbcf2c2b5	-0.02963386
176	0x3c9d2683	0.019183403
177	0xbd094c67	-0.03352013
178	0xbcdb9511	-0.026804479
179	0x3cde9fb2	0.027175758
180	0x3d1c70bd	0.038193453
181	0x3cf9bd7d	0.030485863
182	0x3af34f66	0.0018563091
183	0x3c172ebb	0.00922745
184	0x3b84f273	0.0040572225
185	0xbccdd6d2	-0.025126848
186	0xba2cdfb9	-0.00065946166
187	0x3b2cb0b6	0.0026350445
188	0xbcda95bf	-0.026682733
189	0xbd30b567	-0.04314175
190	0x3c1f16db	0.009710039
191	0x3c425e6a	0.01186333
192	0xbca00711	-0.01953462
193	0x3bd25f2a	0.006420036
194	0xbd028018	-0.03186044
195	0xbb1516f6	-0.0022749281
196	0x3c011d3e	0.007880507
197	0xbb81e2f6	-0.0039638234
198	0x3cb39b3c	0.021924607
199	0xbcafc1b0	-0.021454662
200	0xbb21875d	-0.0024647333
201	0x3bbf5db1	0.0058400263
202	0x3d071564	0.032979384
203	0xbb87be93	-0.0041425913
204	0xbcac2d1f	-0.02101761
205	0xbca87f15	-0.02056841
206	0x3b955d88	0.004558269
207	0xbcb92767	-0.022601796
208	0x3d292fb2	0.04130525
209	0xbb3b70f9	-0.0028601272
210	0x3cddd05d	0.027076894
211	0x3cd3b08e	0.025841024
212	0xbb90d520	-0.0044199377
213	0xbccd02d9	-0.025025772
214	0x3bc4aa51	0.0060017486
215	0xbc9ceb6f	-0.019155232
216	0xbc2a04b6	-0.0103771
217	0x3cceccdb	0.025244167
218	0x3c559a71	0.01303731
219	0x3c0e1b15	0.008673449
220	0x3b97f7d8	0.0046376996
221	0xbc06f121	-0.008236201
222	0x3cda39f4	0.026638962
223	0x3bf5f8de	0.007506474
224	0xba194c27	-0.00058478344
225	0x3a0ee495	0.00054509315
226	0x3c035a0b	0.008017073
227	0xba013781	-0.000492923
228	0x3cc79201	0.024361612
229	0x3b998e20	0.004686132
230	0xbcfe8a4a	-0.0310718
231	0xbce9f048	-0.028556958
232	0x3d08390d	0.033257533
233	0x370254ef	7.768379e-06
234	0xbbf4d4c1	-0.0074716513
235	0x3d40f786	0.047111057
236	0xbd263e4e	-0.040586762
237	0x3d3096a0	0.043112397
238	0x3d245e82	0.040129192
239	0x3cec63cf	0.028856186
240	0x3c1f88d4	0.009737212
241	0xbd0c09d7	-0.03418907
242	0x3973373d	0.00023194864
243	0x3c679636	0.014134934
244	0x3d1f49f9	0.038888905
245	0x3d01599f	0.03157961
246	0x3cccf92d	0.02502116
247	0xbc03222c	-0.008003753
248	0xbc145946	-0.009054488
249	0xbcd86d46	-0.026419293
250	0x3c9ae7ac	0.018909298
251	0x3cbf1bc5	0.023328671
252	0x3b84bfbe	0.0040511778
253	0x3b0a6ff7	0.0021123865
254	0xbcb9426d	-0.022614682
255	0x3ca2d4ee	0.019876923

fc1.bias f4 [128]
0	0x3bf769f1	0.007550471
1	0x3cd24930	0.025669664
2	0xbc711708	-0.014714964
3	0xbbe7b6dc	-0.007071359
4	0x3c07cf30	0.008289143
5	0xbcefb2f0	-0.029260129
6	0x3c99fe03	0.01879788
7	0xbb84b9d8	-0.0040504746
8	0xbbac127f	-0.0052512283
9	0x3b8c6e28	0.0042855926
10	0xbb28cfc6	-0.0025758608
11	0x3ce9ca09	0.02853872
12	0x3c5d927b	0.013523693
13	0x3cbefb66	0.023313235
14	0xbca13f45	-0.01968349
15	0x3cfde4f7	0.030992968
16	0xbc7e4a10	-0.015520588
17	0xbc4cab94	-0.012492079
18	0xbca79712	-0.020457778
19	0x3ccb8ac7	0.024846448
20	0xbb772e9c	-0.003771699
21	0xbbdab259	-0.0066740927
22	0xbcb19a90	-0.021680146
23	0x3cb3d4ce	0.02195206
24	0xbc183e67	-0.009292222
25	0xbccac542	-0.024752263
26	0xbb9a0ba1	-0.0047010933
27	0xbcb313e3	-0.021860069
28	0xbc70e870	-0.014703855
29	0x3c3eace6	0.011637902
30	0xbc09aad3	-0.008402544
31	0xbcb9100b	-0.022590658
32	0x3b6ccb79	0.0036132021
33	0xbca2100c	-0.019783042
34	0xbbe39712	-0.006945499
35	0xbcc2a577	-0.02376054
36	0xbabf25b4	-0.001458338
37	0xbc12242f	-0.00891976
38	0x3c7ab620	0.015302211
39	0x3c402c37	0.011729292
40	0xbbb58691	-0.005539723
41	0xbc23c968	-0.009996749
42	0x3cbadba4	0.022809811
43	0x3c6cd46c	0.014454942
44	0xbd0063ac	-0.031345055
45	0x3d1054f4	0.035237268
46	0x3c27dbd5	0.010245283
47	0xbc79d66f	-0.015248879
48	0x3c9c6bae	0.019094314
49	0xbcde9590	-0.027170926
50	0xbc9af400	-0.018915176
51	0xbba98964	-0.005173849
52	0xbc75e2d2	-0.015007691
53	0x3ccbbb7a	0.02486967
54	0x3cb59676	0.022166472
55	0xbcd05e85	-0.025435695
56	0xbc7968fc	-0.015222784
57	0x3b0825bb	0.0020774442
58	0xbc8f625c	-0.017502956
59	0x3d020035	0.03173848
60	0xbcebddd8	-0.028792307
61	0x3c04af5f	0.008098452
62	0x3c80209c	0.01564055
63	0x3c91f450	0.017816693
64	0xbb7c968b	-0.003854188
65	0x3c3879dc	0.011259522
66	0x3bfa8068	0.0076447017
67	0xbc15ea6a	-0.009150127
68	0x3cbae4af	0.022814123
69	0xbc58a893	-0.013223785
70	0x3b751ec0	0.0037402362
71	0xbc981338	-0.018563852
72	0x3ca87ab5	0.020566324
73	0xbc9e3c57	-0.019315882
74	0x3abb8d10	0.0014309008
75	0xbc2d2329	-0.010567465
76	0x3b68c031	0.0035514946
77	0xbd1125d8	-0.03543648
78	0xbce158dc	-0.027508192
79	0xbaac72c7	-0.0013156765
80	0xbc813afa	-0.015775193
81	0xbaf342d5	-0.0018559346
82	0xbc4f4a16	-0.012651941
83	0x3c89d986	0.016827356
84	0xbc6ff8be	-0.014646707
85	0x3ceb4639	0.028720008
86	0xbc49d294	-0.012318272
87	0x3c4244a8	0.011857189
88	0x3c8d5202	0.017251018
89	0x3a99fa4e	0.001174757
90	0x3b8ccfe2	0.0042972425
91	0xbc9fb4cd	-0.019495392
92	0x3ba75d47	0.005107555
93	0x3c6bb7e3	0.014387104
94	0x3b5d22e2	0.0033742716
95	0x3aa12156	0.001229326
96	0x3cacd9d5	0.021099964
97	0x3c9bb422	0.019006792
98	0x39651575	0.00021847135
99	0x3cadf0e4	0.02123303
100	0xbbc5cf9b	-0.0060367114
101	0xbb37ba8d	-0.0028034777
102	0xbbe511a2	-0.0069906274
103	0xbcb0d3e1	-0.021585407
104	0xbb337067	-0.002738023
105	0xbce4d9ef	-0.02793595
106	0xbc86a97f	-0.016438244
107	0xbc8aae2d	-0.016928757
108	0x3c6bc551	0.014390306
109	0xbcc2dbb0	-0.023786396
110	0xbca0c763	-0.019626325
111	0xbc4a2954	-0.012338955
112	0x3c90e386	0.017686617
113	0x3cb3afdd	0.021934444
114	0xbcdfd402	-0.027322773
115	0xbb0310c6	-0.0019999011
116	0xbccfa215	-0.025345841
117	0x3bfa08d0	0.007630445
118	0x3ca609ff	0.020268438
119	0x3ced991d	0.029003674
120	0x3cfe5bd2	0.031049643
121	0xbd1e73b6	-0.03868457
122	0x3c68cc7b	0.014208908
123	0x3c607116	0.013698837
124	0xbd07ce28	-0.03315559
125	0xbb7b0b26	-0.0038306206
126	0xbb76fadf	-0.0037686152
127	0x3c818e95	0.015815059

fc2.weight f4 [6, 128]
0	0x3da61710	0.081098676
1	0xbd305a9d	-0.043055166
2	0xbcbaf165	-0.022820184
3	0xbd877052	-0.0661322
4	0x3db771dd	0.089572646
5	0xbd135fe4	-0.03598012
6	0x3d8c092a	0.068376854
7	0x3d701113	0.058610033
8	0xbd675644	-0.056478754
9	0x3d47315e	0.048631065
10	0xbda76c46	-0.081749484
11	0x3b0f53d5	0.0021870036
12	0xbd8ede4b	-0.06975993
13	0x3dc4dfbf	0.09612989
14	0xbd21bcca	-0.039486684
15	0xbd9189b3	-0.07106342
16	0x3dbc50c4	0.09195092
17	0xbc473569	-0.01215873
18	0x3d566d2e	0.052350216
19	0xbd913c47	-0.07091575
20	0xbda821cb	-0.082095705
21	0xbcdeda93	-0.027203834
22	0xbdb22fa3	-0.08700492
23	0x3d732492	0.059361048
24	0xbd4f4cf6	-0.050610505
25	0xbd95f6b8	-0.073224485
26	0x3dd1d588	0.10245806
27	0xbda7e5ad	-0.08198104
28	0xbdc3ce5f	-0.095608465
29	0x3d6681cd	0.05627613
30	0xbcdfe284	-0.02732969
31	0x3d946dc9	0.07247502
32	0xbdaf8802	-0.08570863
33	0x3d91358a	0.0709029
34	0x3d83ac6a	0.0642937
35	0xbcda3961	-0.026638689
36	0xbdb09d9e	-0.08623813
37	0xbdaeec4e	-0.08541165
38	0x3d6dc45c	0.05804859
39	0x3d8fa908	0.07014662
40	0x3d4929d9	0.049112175
41	0xbdaa2904	-0.08308604
42	0xbdc79444	-0.09745076
43	0x3d518c2b	0.051159065
44	0x3d33cd2d	0.043896843
45	0x3da95c2f	0.08269536
46	0xbdb029e3	-0.08601739
47	0xbb9219e6	-0.0044586537
48	0x3ca82ae2	0.02052826
49	0xbda3a03f	-0.07989549
50	0x3da03a63	0.078236364
51	0xbd9157a1	-0.07096792
52	0xbba9eb0e	-0.0051854914
53	0xbdb90379	-0.090338655
54	0xbccd90b9	-0.025093423
55	0xbd5ec29e	-0.05438482
56	0xbdba1482	-0.09085943
57	0x3caf45a4	0.021395512
58	0x3c189ded	0.009314996
59	0x3d99cce8	0.07509786
60	0xbda56faa	-0.08077939
61	0xbd576818	-0.052589506
62	0x3cb187e5	0.021671245
63	0xbd86ae68	-0.06576234
64	0xbcb6587a	-0.022258986
65	0x3cc574b2	0.024103496
66	0x3d58588c	0.05281882
67	0x3db5e3aa	0.08881314
68	0xbdc9c87a	-0.09852691
69	0x3c46b9ca	0.0121292565
70	0x3cfdf8cc	0.031002425
71	0xbdbdbdf8	-0.09264749
72	0xbd972eaa	-0.07381947
73	0x3b55ca70	0.0032621883
74	0xbcca9d63	-0.024733251
75	0xbd4c4b0a	-0.04987625
76	0x3c86540d	0.0163975
77	0x3d9a0017	0.075195484
78	0x3dad8bc0	0.08473921
79	0x3d0c87b5	0.034309108
80	0x3db70735	0.089369215
81	0xbdc30cfc	-0.09523961
82	0x3d5a93f2	0.053363748
83	0x3c63d203	0.013905051
84	0x3dcd8ff5	0.10037223
85	0xbda23543	-0.07920315
86	0xbd0cf062	-0.034408934
87	0x3de0443f	0.10950517
88	0x3d0eb74e	0.03484278
89	0xbd736c12	-0.059429236
90	0x3cabbbad	0.020963514
91	0xbd9f6552	-0.07782997
92	0x3cb1e5da	0.021716047
93	0x3c9b5312	0.01896051
94	0x3d0f219a	0.034944154
95	0x3d335080	0.043777943
96	0x3d9b9704	0.07597163
97	0xbc9def4e	-0.019279148
98	0x3d309186	0.043107532
99	0xbcf03108	-0.029320255
100	0x3db699ff	0.08916091
101	0xbc1d66f9	-0.00960707
102	0x3d10e26a	0.035372175
103	0x3d405a05	0.04696085
104	0xbbdec0ba	-0.006797877
105	0x3cad8e25	0.021185944
106	0x3cd1a37a	0.025590647
107	0xbd2d45a5	-0.042302746
108	0x3c80d99a	0.01572876
109	0xbd4fb4ad	-0.050709415
110	0xbb900c8f	-0.0043960284
111	0x3dbdaf36	0.092619345
112	0xbdc6bd10	-0.097040296
113	0x3dac3647	0.0840879
114	0xbcb92a6e	-0.02260324
115	0x3d7f98e7	0.06240168
116	0x3dc7b2bb	0.09750887
117	0xbd92ead8	-0.07173699
118	0xbd9b2ea6	-0.07577257
119	0x3d53fb83	0.051753532
120	0x3dad13fd	0.08451078
121	0x3bb65d74	0.0055653397
122	0x3d8fc9c6	0.07020907
123	0xbd8b6b18	-0.06807536
124	0x3cadcdd0	0.021216303
125	0xbd8e94b6	-0.06961958
126	0x3cb5c254	0.02218739
127	0xbc132254	-0.008980352
128	0xbd8ea7fc	-0.06965634
129	0x3d461e55	0.04836877
130	0xbd72cc19	-0.059276674
131	0xbd991186	-0.074740455
132	0x3d757faa	0.059936203
133	0xbdace4f4	-0.08442107
134	0xbdaa46da	-0.08314295
135	0xbd52b58e	-0.051442675
136	0xbbb7a9f1	-0.0056049754
137	0xbd8a8685	-0.06763939
138	0xbdb6b7ac	-0.089217514
139	0x3d5d2670	0.053991735
140	0x3d880d03	0.06643107
141	0xbd3f59ba	-0.04671643
142	0xbd5cbb19	-0.053889368
143	0x3dc08484	0.09400275
144	0x3b261776	0.0025343574
145	0x3c2b4418	0.0104532465
146	0xb8c50bb7	-9.395874e-05
147	0x3beb7fff	0.007186889
148	0xbd9ab71c	-0.075544566
149	0xbd8a8085	-0.067627944
150	0xbd5c3e45	-0.053770322
151	0x3da51311	0.08060277
152	0xbdbd2f17	-0.09237497
153	0x3d31d629	0.04341713
154	0xbc142c00	-0.009043694
155	0xbd83ebc9	-0.06441457
156	0xbd776c96	-0.06040629
157	0x3dc9f453	0.09861054
158	0xbc99d5e4	-0.018778749
159	0xbde72861	-0.112869985
160	0xbd8ec82f	-0.06971776
161	0x3daf49e0	0.085590124
162	0x3db3fa3e	0.08787964
163	0xbd818b30	-0.06325376
164	0xbd45f6ad	-0.04833095
165	0xbcf3c505	-0.029757032
166	0xbd7a2817	-0.06107339
167	0x3da28412	0.07935347
168	0xbda0afc7	-0.07846027
169	0x3db8f0e7	0.090303235
170	0x3d58dd38	0.052945346
171	0xbdd13aa5	-0.10216264
172	0x3ae1b6d9	0.001722063
173	0x3dbf7880	0.093491554
174	0x3dd5c362	0.10437657
175	0xbdb93ef4	-0.090452105
176	0x3d7e8f80	0.06214857
177	0xbdb36a8b	-0.08760556
178	0x3d245a7c	0.040125355
179	0x3d72b225	0.059251923
180	0x3ccabdaa	0.024748642
181	0x3d47f009	0.0488129
182	0xbd88f58b	-0.066874586
183	0xbd002efa	-0.0312948
184	0x3d4cd141	0.050004248
185	0xbd21116e	-0.039323263
186	0x3c76b1ae	0.015057011
187	0x3dd5ccac	0.10439429
188	0x3d15a8df	0.036538
189	0xbc2ab386	-0.010418778
190	0xbd3e376f	-0.046439584
191	0xbd7cf85e	-0.0617603
192	0x3c9d7ea2	0.019225422
193	0x3d76fbc7	0.060298707
194	0x3d799dd7	0.060941543
195	0xbda85d09	-0.0822087
196	0x3d113e33	0.03545971
197	0xbd6c0926	-0.057625912
198	0xbbc10cab	-0.0058914027
199	0xbd159d43	-0.03652693
200	0x3d91845a	0.07105322
201	0xbc92b583	-0.017908817
202	0xbd028893	-0.03186853
203	0xbc0cf8c5	-0.008604233
204	0xbd9af1bf	-0.07565641
205	0xbb41c806	-0.0029568686
206	0x3da1b452	0.078957215
207	0x3ba56a17	0.0050480473
208	0xbdbe0e1a	-0.092800334
209	0x3c5ad9a1	0.013357551
210	0x3db2e384	0.087348014
211	0x3d2be0f0	0.041962564
212	0xbd677e7f	-0.05651712
213	0xbd173f65	-0.036925692
214	0xbdead7e3	-0.114669584
215	0xbd635b6e	-0.055507116
216	0x3d0b2431	0.03397006
217	0x3cb66b51	0.02226797
218	0x3dc1ccb9	0.09462876
219	0x3d0c47ee	0.034248285
220	0x3d30d300	0.043169975
221	0x3d9eeb55	0.0775973
222	0xbd9e5ee4	-0.07732943
223	0xbcf81275	-0.030282238
224	0x3c8a3cb7	0.016874654
225	0x3c828b23	0.015935486
226	0x3d877ec2	0.06615974
227	0xbdfa90a2	-0.12234618
228	0xbd06cdfb	-0.032911282
229	0xbd75aae0	-0.059977412
230	0xbc7f2600	-0.015573025
231	0xbc4f7b61	-0.012663693
232	0xbdb9fa94	-0.09080997
233	0x3e001ae1	0.12510253
234	0xbd85d52b	-0.06534799
235	0xbd5b0285	-0.0534692
236	0x3d465448	0.04842022
237	0xbd8a83da	-0.0676343
238	0x3dcf29ea	0.10115416
239	0x3c896a21	0.016774239
240	0x3d63df2e	0.055632763
241	0xbbf1a424	-0.0073743034
242	0x3c093741	0.00837499
243	0xbb983f62	-0.0046462277
244	0xbd74a39e	-0.05972635
245	0x3d70e428	0.058811337
246	0xbd7ad9af	-0.061242756
247	0x3d17944c	0.03700666
248	0xbd538931	-0.051644508
249	0x3c625371	0.013813839
250	0xbcd5314d	-0.026024485
251	0x3d915991	0.070971616
252	0x3d8c82c9	0.06860883
253	0x3d788010	0.060669005
254	0x3d43dac4	0.047816053
255	0xbce11655	-0.027476469

fc2.bias f4 [6]
0	0xbd637df9	-0.05554006
1	0xbc179bb5	-0.009253432
2	0xbd6a53ac	-0.057208702
3	0x3d6f1391	0.05836827
4	0x3c5eeb60	0.013605922
5	0xbda6a301	-0.08136559
