prod/modelNumber.pth (torch, 396912 bytes, 4 tensors)

fc1.weight f4 [128, 768]
00000000: fbd0 2a3c 152e a3bb 4c12 b63c 027b ce3b
00000010: acaf 233c a54e f7bc 90f6 d5bb dfab 203b
00000020: 75d1 75bb 89c9 03bd c17a 83bc 590f c03c
00000030: 15f3 e4bc 7e8c 21bd f535 05bd b094 8e3c
00000040: cc93 eebb c5db b53c 07ee bdbc 97d7 e23c
00000050: b430 e1bc 6c45 d3bc 8c23 833c ee7c eebb
00000060: 09e9 733c a248 ef3c 6acc abbc bc49 16bc
00000070: 3501 f13b 06e4 c73c 65fd 11bc fa3d 653c
00000080: 666a fcbc 96b4 a0bb 2f46 d73c 377f 573c
00000090: 3e40 e83c 84b3 0b3c fb41 ea3c e8a5 d5bc
000000a0: 79bf c33c 1ef9 283c c56f 2c3c 3d40 f63c
000000b0: deb8 78bc f0cb c93c 6419 07bd e053 e43a
000000c0: 8751 ae3c bb25 0ebd c8cd 0b3d 055c bbba
000000d0: 61a5 db3b a5d5 ac3b 0cca 07bd 9064 c73c
000000e0: d65c 72bc a744 c5bc 519f a7bc 7aae ffbb
000000f0: be59 1dbc 0c4c 5abc 42c3 d13c 3a8f 9f3c
00000100: 5357 bdbc a681 5b3c fbbc ebbc 5735 8c3b
00000110: dec1 9c3c 2a76 5e3c ea14 de3c 98e2 ebbb
00000120: 2af2 08bd 46eb a43c ef19 9fbc c787 163c
00000130: 673e 8b3c b45a 553b 743e 74bc 14a7 34bc
00000140: 041c 613b ed1d 8e3b b637 25bc d7d7 ba3c
00000150: 4e1d 1cbb 0921 4b3c 6435 ecbc 5074 453c
00000160: 1825 93bb 1f43 d6ba 0302 c7bc e7bd abbc
00000170: c395 f7bc 1c43 ca3b d28b 80bc 699d 0e3d
00000180: 7e6a b0bc 597d ebbb c84d 073d 1398 99bc
00000190: 4661 f63c 9477 353c 9b4c 8d3c 1d03 b8bc
000001a0: f94b ca3b f863 1c3c ffa7 0e3d dbec 2fbc
000001b0: 7206 f93c 3308 debc 25ec d3bc 955e c8bb
000001c0: 21aa 0dbc b4a6 273c bde7 9d3a e7e7 783c
000001d0: 95f8 73bc 48f6 2abd bdfb 963b 3fa1 643b
000001e0: d9c8 7cbb fec4 013c 368c ee38 49a7 0ebc
000001f0: 876f 1d3c 299f 633c f932 a73c a94a 00bd
00000200: 11e7 223c c92f 763b 6187 d5bc c1bd ddbc
00000210: 14ab aabc 2699 033d a9b3 07bc 95ac 39bb
00000220: ea34 163d 803b 8a3c f7c5 a83c 855e de3c
00000230: 2f9c e5bc 658f 6bbb b389 ddbc 91a6 23bb
00000240: 8f97 babc 571d 00bd 7206 a6bc e989 07bc
00000250: 7605 35bc 9ff2 843a ee53 473c 83b1 fb3c
00000260: 7a62 ed3c bd3e 0f3b 2d61 ef3c dbf2 283c
00000270: c3cc 9f3c 7998 b9bc 2a0b fdbb bbf9 6f3c
00000280: 9d51 803c 304a 933c 060b 39bc 628d 7fbc
00000290: adaa b3bc c0ee 013d 31d2 82bc 7798 163d
000002a0: dcb7 e3bc 0366 083c 6461 c7bb ea32 17bd
000002b0: 3b63 0d3c 487c d5bb b545 16bc 3c86 eebc
000002c0: 9dbd 0b3c 4a47 c5bc c1af 96bc 1e15 e93b
000002d0: d964 143c 65f7 593c 5062 683c bb68 013d
000002e0: 4b3e 09bc b90e c6bb bd0b 5cbc 27c9 abbb
000002f0: bfc1 ac3c 44a2 93bc 8c92 b5bc b73c e93c
00000300: db60 c6bc 548f 923c 49b0 03bc 385a 2e3c
00000310: 4ff8 b9bc f581 09bd db54 d0bc 0e10 6dbc
00000320: 1701 443c 4122 023b 681f 24bc 5c5b f13c
00000330: 22df 2e3c 71a3 51b9 4b44 ac3c c7b8 3a3c
00000340: e48e e8bc 103a e4bc 0db8 9139 344f e43c
00000350: 0ddd f537 2db7 a73c 67e9 153d 354d cd3c
00000360: 2204 953c c91c 093d e793 90bb d3db c5ba
00000370: 8bb5 803c 9720 0b3d 076a 30bc 61b0 d8bc
00000380: cf7c f23c 356c 023b f203 b33b e769 103d
00000390: ad70 353a 4613 b93b 189a 1cbb 36b1 fd3c
000003a0: f913 1a3d 22fe 9fbb bc12 f03c cb4d e2bc
000003b0: 7abd 123d bbe2 2b3c 5622 a73c d441 41ba
000003c0: 3390 c4bb 8c52 febc fedd 5e3c 54af 08bc
000003d0: eb7d e6bc 0ba6 a6bb 0122 9bbc d030 ca3c
000003e0: c39e ee3c 006d ff3c ce8f efbb 1aeb 7d3a
000003f0: 6254 1f3c 01df c4bc 3fab fcbc d72f 013d
0.010425801 -0.0049798586 0.022225522 0.006301285 0.009990614 -0.030188868 -0.0065296367 0.0024516506
-0.003750888 -0.03217462 -0.016049745 0.023444818 -0.027947942 -0.039440624 -0.03252216 0.017404884
-0.0072808024 0.02219952 -0.02318479 0.027690692 -0.027489044 -0.025789939 0.016008161 -0.0072780764
0.014887103 0.029209439 -0.020971496 -0.009172853 0.00735488 0.024400722 -0.008910512 0.013991827
-0.030812453 -0.00490434 0.026278583 0.013152889 0.028350946 0.008526687 0.028595915 -0.026080087
0.023895012 0.0103133 0.010524695 0.030059928 -0.0151807945 0.024633378 -0.0329832 0.0017420016
0.02127911 -0.03470395 0.034131795 -0.0014294392 0.0067030643 0.005274492 -0.03315167 0.024339944
-0.014792642 -0.024080588 -0.02046171 -0.0078027816 -0.009603916 -0.013323795 0.025605801 0.019477475
-0.023112928 0.01339761 -0.028776636 0.0042788195 0.019135412 0.013577977 0.027109582 -0.007198643
-0.03343407 0.020131718 -0.019421546 0.009187645 0.01699753 0.0032555284 -0.014907468 -0.011026163
0.0034348974 0.0043370635 -0.010084083 0.022807999 -0.0023821178 0.012398013 -0.028834052 0.012051657
-0.004490506 -0.0016346908 -0.024292951 -0.020964576 -0.03022278 0.006172551 -0.015691672 0.034818087
-0.021535154 -0.0071865735 0.033033162 -0.018749272 0.03007568 0.011075873 0.017248442 -0.022462422
0.0061736074 0.009545319 0.034828182 -0.010737623 0.030398581 -0.027103519 -0.025869438 -0.0061147907
-0.008646519 0.010232616 0.0012047213 0.015192009 -0.01489081 -0.04173878 0.0046076463 0.003488615
-0.0038571863 0.007920502 0.00011374841 -0.008706876 0.00960911 0.013892927 0.020410048 -0.0313212
0.009942786 0.0037565103 -0.02606553 -0.02706802 -0.02083353 0.032128476 -0.00828258 -0.0028331627
0.036671557 0.016874075 0.02060221 0.02714468 -0.028028576 -0.0035943624 -0.0270432 -0.0024971107
-0.022777347 -0.03127798 -0.020266745 -0.008272626 -0.011048665 0.0010143108 0.0121660065 0.030724293
0.028977621 0.0021857463 0.029221142 0.0103118075 0.019506818 -0.022655712 -0.007722278 0.014646943
0.015663916 0.017979711 -0.011294132 -0.015597673 -0.02193197 0.03172183 -0.015969368 0.036766496
-0.027797632 0.008325103 -0.006084608 -0.03691379 0.008629615 -0.0065150596 -0.009171893 -0.029116742
0.008529094 -0.024081845 -0.018394353 0.007113113 0.009057247 0.013303612 0.014183596 0.03159402
-0.008376668 -0.0060442355 -0.013430533 -0.005242485 0.02108848 -0.01802171 -0.022164606 0.028471334
-0.024216106 0.01789061 -0.008037635 0.010641627 -0.02270141 -0.033571202 -0.025431087 -0.01446916
0.01196315 0.0019856843 -0.010017253 0.029462509 0.010673316 -0.0001999268 0.021028658 0.011396593
-0.028388448 -0.027859718 0.00027793684 0.027869798 2.930921e-05 0.020473087 0.036599543 0.02506123
0.018190447 0.033474717 -0.0044121626 -0.001509542 0.015711566 0.033966627 -0.010767466 -0.026451292
0.029600529 0.0019900922 0.005463117 0.035257246 0.0006921392 0.0056480495 -0.0023895558 0.03096829
0.037616704 -0.00488259 0.029305808 -0.027624985 0.03582523 0.0104910685 0.020402115 -0.0007372175
-0.005998635 -0.03104522 0.013602732 -0.008342583 -0.028136214 -0.005085712 -0.018937113 0.024681479
0.029128438 0.031179905 -0.007310844 0.0009686217 0.009724708 -0.024032118 -0.030843375 0.031539764

fc1.bias f4 [128]
00000000: 2e1d 88bc 0fc1 8abc 1724 203d c2a4 9a3b
00000010: d04f 113d 0819 b5bc 77b3 06bd 2356 a13b
00000020: f915 febb 3a27 a43c ff3c 383b f358 dabc
00000030: b8fe 99bb 5c75 79bc dfcc 833c d0f4 8eba
00000040: de87 433b 855e 76bc cd63 2fbc aac8 01bd
00000050: 68e6 ed3c d688 053c 7e76 a0bc 770d d4bc
00000060: 39ce 933c eec6 bcbb 191d 9ebc 9f4b 0a3d
00000070: 3c05 61bc 2124 e2bc 800e fcbc 80b5 73bc
00000080: bd18 e4bc f10c 19b9 aefa 9a3b 42eb 053d
00000090: f4b3 aebc f55b 8fbc d6e4 923a 1d16 3b3c
000000a0: 5f89 c63b 9190 0c3c ff6c 9a3b 5b39 e93c
000000b0: d558 afbc dc15 d23c fa75 433c 2860 3fbc
000000c0: 5b9e 5fbc 5201 333c 12e9 c8bc 5a5b 2ebc
000000d0: 4cc0 b1bc 794d 303b c868 f2ba c824 253d
000000e0: c8d6 583c 50f7 6f3c 266f 54b9 cd10 0d3d
000000f0: bdb6 343c 1908 cd3c ae00 efbb 3b06 6dbc
00000100: 1a95 263c abe4 823c a719 bfbc 7676 cebc
00000110: 5aa1 143c 47ba a6bc 42cf 9c3c 0a71 43bc
00000120: ce9e b3bc 4b68 b4bc 77ee cabc c3e9 1cbc
00000130: 99be d53b e1fd 05bb 7be9 21bb d3e4 cbbc
00000140: a99a 6e3c d273 e7bc 4dd4 4bbc 9110 dbbc
00000150: f582 d5bb d8aa fe3c 4e17 6bbc 68e9 e83c
00000160: 3142 bb3c 9eeb 03bd b664 9fbc 6725 ff3b
00000170: 6c13 98bc 95ad 0e3c d1e4 1c3d ac60 ae3a
00000180: 1eb0 8e3c ef8f dabc 1b89 b2bb 27e6 73bc
00000190: 188d abbc 9c5b 08bc 87c9 063d 5b7b 1e3d
000001a0: 465b 773a d0f0 bb3b 4355 03bb 0ab6 5c3c
000001b0: 6975 abbb 00f2 a2bc f999 573c 7f31 16bb
000001c0: 9c54 a93b d225 4c3c 0198 be3c c348 4dbc
000001d0: d883 b33b feca 50bc d3d4 133d 9122 42ba
000001e0: aba6 c33a 6b42 cb3b ec64 4b3c f2ba 263c
000001f0: fa25 153d 6079 87bc 352c b73c 6bf1 cf3c
-0.016615476 -0.01693776 0.039096918 0.0047193477 0.035476506 -0.022106662 -0.032885995 0.0049235984
-0.007754084 0.020038236 0.0028112528 -0.026653742 -0.0046995543 -0.015225735 0.016088901 -0.00109067
0.0029835622 -0.015037184 -0.010704947 -0.03168551 0.02904053 0.0081503 -0.019587751 -0.025885327
0.01804267 -0.005761019 -0.019300984 0.033763524 -0.013734158 -0.027605118 -0.030768633 -0.014874816
-0.027843827 -0.00014596038 0.0047295904 0.032695062 -0.021326043 -0.017499903 0.0011207114 0.011418846
0.0060588564 0.008579389 0.0047127004 0.028469732 -0.021404663 0.025645189 0.011929983 -0.01168064
-0.013648595 0.010925608 -0.0245252 -0.010641897 -0.02169814 0.0026901646 -0.0018494362 0.04031828
0.013234802 0.014646366 -0.00020259302 0.03443985 0.011029896 0.025028275 -0.007293782 -0.0144668175
0.0101673845 0.015978178 -0.023327662 -0.025202971 0.009071672 -0.020352496 0.019141797 -0.011928806
-0.02192631 -0.022022387 -0.024771912 -0.0095772175 0.006522965 -0.0020445513 -0.0024705816 -0.024889385
0.014563241 -0.02825347 -0.012440753 -0.026741298 -0.0065158554 0.031087324 -0.014348818 0.02843161
0.022858711 -0.032207124 -0.019457202 0.007786441 -0.018563949 0.008708377 0.038304154 0.0013303957
0.017417964 -0.026679961 -0.005448473 -0.014886416 -0.020941302 -0.008322623 0.032907035 0.03869186
0.0009435903 0.005735494 -0.0020039834 0.013471136 -0.0052325022 -0.019890785 0.013159269 -0.0022917686
0.005167557 0.012460189 0.02326584 -0.012529555 0.0054783635 -0.01274371 0.036091637 -0.00074056635
0.001492699 0.006202986 0.012414198 0.010176407 0.03641317 -0.016537368 0.022359947 0.025383672

fc2.weight f4 [2, 128]
00000000: 4381 00bd eaed 503d f3ae cb3c 1b42 a53d
00000010: 616e 5f3d 89b6 58bd 748f 6ebc 3b24 373d
00000020: 74e6 af3d 8408 a5bd f5b0 35bd fda7 883d
00000030: b930 3cbd af42 683d eb79 053d a1e0 76bd
00000040: f368 95bd 7e7d ae3d cb21 633d e3c7 2bbd
00000050: c340 a8bd 4c1a ecbc 4efd 5c3c 8d46 183c
00000060: 4a64 a03b 2e4a 873d 6de4 b8bc ed47 5dbd
00000070: 216a 25bb ad09 1d3b 16d0 653d d4bf 9d3d
00000080: f9a8 a13d d192 d23c d3dd 533d 5961 ccbb
00000090: c72f 8c3d 8446 a83c cf78 373d 24da 2d3d
000000a0: 7a23 563d d3a7 763d 330d 6abc 0302 613d
000000b0: c9fe a9bc 27e3 70bd 7095 aebd 60b6 e8bc
000000c0: 50b3 22bd ec27 353d d37b b63d 057b 1e3d
000000d0: 6959 ebbc 545f 5a3c 3992 5bbd f307 1d3d
000000e0: 460c b83a 4bc9 a4bd 1941 9cbd 9ea8 59bd
000000f0: 24dc 1dbd 4e1c 2e3d f297 363d b323 6bbd
00000100: 8508 8c3d 0938 67bc 35ad c9bc 74bd 913d
00000110: 1e10 15bd 05ef 433c 41eb 95bd 8276 a0bd
00000120: 2277 b53d 40c5 57bc 2fba 9e3d 68a5 a9bc
00000130: 50c9 4e3d e86d 243d 95ad 9d3d 1ec4 64bd
00000140: 2ad6 6ebd 3b2e 2f3d 7e47 903c 3746 793b
00000150: 1dcf 873d ed3d 54bd 80e4 afbd 371e 183d
00000160: 477c 20bd b6ef b3bc 1887 b33d 61f3 41bd
00000170: 4d0c 9dbd fa97 7abc b778 ba3d 9163 9f3c
00000180: 5f55 98bd d6e0 863d a330 b3bd 3a6d 24bd
00000190: 79e0 51bd 64d5 c1bc 5e97 4cbd 37d7 c23c
000001a0: a804 a83d 83c8 b03c 0363 803c 3f76 a03d
000001b0: 4d95 c4bd 22de 943d 198a a6bd 45db a2bd
000001c0: 0715 98bd bf9a 77bd 6ace 88bd 353c 4d3d
000001d0: b5f2 a53d 957d 613d 0375 853c 2fc6 63bd
000001e0: 96cb f1bc 66dd ef3b f12f 663d 0741 323d
000001f0: 776f 2f3d 09e7 a7bd 58d2 a43d cc72 103c
00000200: f046 3e3d f30e 683c dc13 613d bec1 ffbc
00000210: 3cb0 b7bd 9e6f a83d 1fab febc 7175 f0bc
00000220: e93b a2bc e264 36bd 4990 94bd b35f 5c3c
00000230: 5ee5 fbbc 8dbe bd3d 4488 7cbd 4e64 763d
00000240: 539a 3d3c 3ac9 93bd e4ec 723d e9d6 bd3b
00000250: 3a76 663d ace2 abbd 8b93 3fbd 5fdc 093d
00000260: f331 9bbc 968f 3a3d b69b 7b3d c5bb 38bc
00000270: d0e3 c03d 0155 b9bd 5c69 a33d 6168 b7bc
00000280: 445c e2bc ef15 743d d559 70bd 8949 173d
00000290: 03da 94bc bedf 2b3b cb50 8bbd dffa dab9
000002a0: 5c6a 213c 99b7 b13d b19d c53b b4d1 18bd
000002b0: b8f4 c23c 67c0 bb3d b0cc 35bd b0a7 19bd
000002c0: cdb2 2e3d d776 66bc e910 0fba 69d3 483d
000002d0: 02ef b03c d319 8e3d 2f0f ebbc 7ba2 a43d
000002e0: c115 32bd 602f 21bd edd8 9abd a946 613d
000002f0: a2b0 1b3c f4fd b83d 135d af3d 52ff 3ebc
00000300: 4c02 cb3c a468 893d a861 a23c 668d 85bd
00000310: e277 233d 7fbb 24bd c454 e9bb 7c92 243d
00000320: 92a9 fa3b d537 e03c 7061 b73d 18a6 cb3c
00000330: 2151 9a3d 0b74 873d 86a8 1f3c 2574 e23c
00000340: 584c 44bd 0dad a1bc 7450 50bb 553f aabd
00000350: 4690 5d3d ccd8 f8bb d457 bb3c e105 5c3d
00000360: 814e 9bbd fc23 933b 5d84 8b3d 952e 6a3d
00000370: 0a72 323d e6ec 283d fa32 a1bd ed79 05bd
00000380: 1d0c 523d 184d adbd 1fba 383c 19be 31bd
00000390: ed48 053c 27dc 79bd c835 b2bd a4f3 03bc
000003a0: e536 81bd dcc2 cfbc 15f7 8cbd 72c5 57bd
000003b0: 9f33 873d d9c0 733c 9ac6 43bd f5be 9b3d
000003c0: 29f8 43bd 2f2e a53d 007d 603d b30e 13bc
000003d0: 0bb6 82bd d94f 083c 6132 b23d 1ecf 8bbd
000003e0: a099 b3bd 3350 5abd c611 0bbc 6d88 7bbc
000003f0: 65da 2fbd b960 6f3d 1024 13b9 61ab 86bd
-0.031373274 0.051008143 0.024863696 0.08069249 0.054548625 -0.052908454 -0.014560569 0.044712286
0.08588877 -0.08058265 -0.044358213 0.06672666 -0.045944903 0.05670422 0.032586973 -0.060272817
-0.07295408 0.085200295 0.05545215 -0.041938674 -0.08215477 -0.028821133 0.013488127 0.009294164
0.004894768 0.066059455 -0.02256986 -0.054023672 -0.002524026 0.0023962066 0.05610665 0.07702604
0.07893557 0.025704773 0.05172522 -0.0062371907 0.0684505 0.020541437 0.044792946 0.042444363
0.052279927 0.060218643 -0.0142853735 0.05493356 -0.020751374 -0.05881038 -0.08524597 -0.028407276
-0.039721787 0.044227526 0.08910336 0.03869154 -0.028729158 0.013328392 -0.053606246 0.03833766
0.0014041744 -0.08046206 -0.07629604 -0.05313932 -0.03854002 0.042507462 0.0445785 -0.057407092
0.068375625 -0.014112481 -0.024618724 0.071162134 -0.036392324 0.011958842 -0.07320262 -0.078351036
0.088606134 -0.013169587 0.077503555 -0.020708755 0.050484955 0.040143877 0.07699124 -0.055851094
-0.05830971 0.0427687 0.017612215 0.0038036236 0.066313006 -0.05181687 -0.08588505 0.03713819
-0.03918102 -0.021964889 0.087660015 -0.047351245 -0.07668362 -0.015295023 0.09105056 0.019456657
-0.07438158 0.06585853 -0.08749511 -0.04014323 -0.051239464 -0.023661323 -0.049949042 0.023784263
0.08204013 0.021579986 0.015672212 0.07835054 -0.09598789 0.07268931 -0.08131809 -0.079519786
-0.07425886 -0.06045031 -0.06679995 0.050106246 0.08102933 0.055051405 0.016291147 -0.055608924
-0.029516023 0.007320094 0.056198064 0.043519046 0.04283091 -0.08198363 0.080479324 0.008816432
0.04645437 0.01416372 0.05495058 -0.031220313 -0.08969161 0.08224414 -0.031087456 -0.029352875
-0.019803958 -0.044529803 -0.07254083 0.013450551 -0.03074902 0.0926486 -0.06165339 0.06015425
0.011572438 -0.07216115 0.059307948 0.0057934416 0.056265093 -0.083928436 -0.046771567 0.033657428
-0.018944716 0.04554709 0.061427794 -0.0112752365 0.09418452 -0.09049416 0.0797908 -0.022388639
-0.027631886 0.05959123 -0.05867942 0.036935363 -0.018170362 0.002622589 -0.068025194 -0.00041767114
0.009852018 0.086775966 0.006030761 -0.037309363 0.023798332 0.09167557 -0.04438466 -0.037513435
0.042650986 -0.01406642 -0.0005457537 0.04902974 0.021598343 0.06938519 -0.028693764 0.08038803
-0.043477777 -0.03935182 -0.075609066 0.054999027 0.009502562 0.09032813 0.085626744 -0.011657553
0.024781369 0.06709412 0.019821957 -0.0652111 0.03990925 -0.040217873 -0.0071207006 0.04017876
0.007649609 0.027370373 0.089541316 0.024859473 0.07535005 0.0661393 0.009744769 0.027643273
-0.04792437 -0.019735837 -0.0031786235 -0.08312861 0.054092668 -0.0075942036 0.022869028 0.053716544
-0.07583333 0.0044903737 0.06812356 0.05717333 0.043565787 0.04124155 -0.07871051 -0.03258698
0.051281083 -0.0846197 0.0112748435 -0.043394182 0.008135063 -0.06100097 -0.08701664 -0.008053694
-0.063092984 -0.02536147 -0.06883065 -0.052678533 0.06601643 0.014877521 -0.047796823 0.076047815
-0.047844086 0.080654494 0.05480671 -0.008975673 -0.06382378 0.008319818 0.08701015 -0.06826614
-0.08769536 -0.05329914 -0.008488124 -0.015352351 -0.042932887 0.05844185 -0.00014032447 -0.06575657

fc2.bias f4 [2]
00000000: 4e18 7b3d b116 e83c
0.061302476 0.028331133
