prod/modelTime.pth (torch, 397920 bytes, 4 tensors)

fc1.weight f4 [128, 768]
0	0xbc46923c	-0.012119826
1	0x3d0903ca	0.03345088
2	0x3bd83087	0.006597582
3	0xbc7e0e61	-0.015506358
4	0x3ccfbce8	0.025358632
5	0x3d64229d	0.055697072
6	0x3cb3ad20	0.021933138
7	0x3c4f2791	0.012643711
8	0x3d384a4f	0.04499274
9	0xbd2f738c	-0.042834803
10	0x3cb632e4	0.022241063
11	0x3c67c71c	0.0141465925
12	0xbc6b4770	-0.014360294
13	0x3cd4d77c	0.025981657
14	0x3ce3eb33	0.027822113
15	0xbbfba969	-0.0076801074
16	0x3d28158a	0.041036166
17	0xbd5d2662	-0.053991683
18	0xbccea6a3	-0.025225943
19	0xbb9b0302	-0.004730583
20	0x3b5fdfee	0.0034160572
21	0x3d2967e1	0.041358832
22	0xbb9e7cbb	-0.0048366464
23	0xbc2ed9cf	-0.010672047
24	0x3d4761b7	0.048677173
25	0xbc679574	-0.0141347535
26	0xbd15224e	-0.03640967
27	0xbcbe6884	-0.023243196
28	0x3d5490ee	0.05189603
29	0x3d584208	0.052797347
30	0x3d0d93f4	0.034564927
31	0x3c1b92c7	0.009495444
32	0xbd7783de	-0.060428493
33	0x3d08039f	0.03320658
34	0xbccb33f0	-0.02480504
35	0xbca672a2	-0.020318333
36	0xbcc0d34b	-0.023538252
37	0xbd91bd6f	-0.0711621
38	0x3db21070	0.086945415
39	0xbb9d5691	-0.0048015793
40	0x3c4baad4	0.012430865
41	0xbc805a9f	-0.015668212
42	0x3cad75b0	0.021174282
43	0xbc2a5b0b	-0.010397683
44	0x3c2a4ead	0.010394734
45	0xbd783be9	-0.06060401
46	0xbca31018	-0.019905135
47	0x3b6e46e5	0.0036358174
48	0x3cd15f74	0.02555821
49	0xbbcc3590	-0.006231971
50	0xbcbf8282	-0.02337766
51	0xbcbc05e0	-0.02295202
52	0xbda59c75	-0.080864824
53	0xbb8955fd	-0.004191159
54	0xbc5e3c31	-0.013564155
55	0x3d04e143	0.03244139
56	0xbbdf2ac8	-0.00681052
57	0xbc9a2a66	-0.018819045
58	0x3c93333b	0.017968765
59	0x3c92abdc	0.017904215
60	0xba6cce36	-0.00090334134
61	0xbcdf7488	-0.027277246
62	0x3b389d03	0.0028169758
63	0xbc5845b4	-0.013200212
64	0x3c840a3f	0.016118167
65	0x3b10daa2	0.0022102972
66	0x3c5a446a	0.013321975
67	0xbcb828cc	-0.022480391
68	0x3d4d8205	0.050172824
69	0x3c63630e	0.013878597
70	0xbca32a89	-0.019917743
71	0xbc8de0ba	-0.017319072
72	0xbb93edb8	-0.0045144223
73	0xbc100e1d	-0.008792427
74	0xbc671d59	-0.014106118
75	0x3d0e17cf	0.034690674
76	0x3c2dbe2c	0.010604423
77	0xbc6db107	-0.014507539
78	0xbc980e3f	-0.01856148
79	0x3d500724	0.05078806
80	0xbcfba302	-0.030717377
81	0xbabf5a07	-0.0014598974
82	0x3c227e44	0.009917799
83	0x3d46d1a3	0.04853977
84	0xbcedb758	-0.02901809
85	0xbae46bd3	-0.0017427154
86	0xbaccc37f	-0.0015622227
87	0xbcd3ee07	-0.025870336
88	0x3cdfe859	0.027332472
89	0x3cce42b4	0.02517829
90	0xbd2abe56	-0.041685425
91	0xbd15c43e	-0.036564104
92	0xbc8f9910	-0.01752904
93	0xbc4a0fbf	-0.012332856
94	0x3d150b8a	0.036387958
95	0x3bfb6cd0	0.0076728836
96	0x3c9e740c	0.019342445
97	0x3c3dcd18	0.011584543
98	0xbcba94a0	-0.022775948
99	0xbc967f4b	-0.018371245
100	0x3ce68b2d	0.028142536
101	0xbcd4c9ea	-0.025975186
102	0xbd243110	-0.040085852
103	0x3bed33ce	0.0072388416
104	0xbd22fadb	-0.039790016
105	0xbccdfce6	-0.025145005
106	0x3cfc470c	0.030795597
107	0xbc06a4c7	-0.008217997
108	0x3c7dc9ad	0.015489978
109	0x3c0653a9	0.008198657
110	0x3cdc535a	0.026895214
111	0xbd22bbdf	-0.03972995
112	0xbc820c25	-0.015874932
113	0x3d7a983f	0.06118035
114	0xbc3cd043	-0.011524263
115	0x3d65a4e1	0.056065444
116	0xbc12fdc7	-0.008971638
117	0x3c9ca57f	0.019121883
118	0xba1e079e	-0.0006028357
119	0xbd121838	-0.035667628
120	0xbcc4d088	-0.024025217
121	0x3d343bc8	0.044002324
122	0xbcd97d24	-0.02654893
123	0xb84454a8	-4.6808884e-05
124	0xbb6bdb12	-0.003598873
125	0x3d401a4c	0.04690008
126	0xbd08b432	-0.033374973
127	0x3c8bab77	0.017049534
128	0xbc49eb59	-0.012324178
129	0xbd50bcb5	-0.050961215
130	0xbca93649	-0.020655768
131	0x3c7ad476	0.015309444
132	0x3d330ebf	0.043715235
133	0xbd5bcaeb	-0.053660315
134	0xbc55c226	-0.013046777
135	0x3c608298	0.013703011
136	0xbbf295cb	-0.0074031106
137	0xbce51d7b	-0.027968159
138	0x3d1e0309	0.038577113
139	0xbc04e90e	-0.008112205
140	0x3d35f8c7	0.044426706
141	0x3d0702f2	0.032961793
142	0xbd33341c	-0.043750867
143	0x3c07313f	0.008251487
144	0x3b95f2b2	0.0045760507
145	0xbd5475f9	-0.05187032
146	0x3d26e4aa	0.040745415
147	0xbd40a85d	-0.047035564
148	0x3c2e621a	0.010643506
149	0xbccfdaa0	-0.025372803
150	0x3a4fc9d2	0.0007926497
151	0x3d197dc1	0.037473444
152	0x3d3cf809	0.046134982
153	0x3d69f82c	0.05712144
154	0xbcd48636	-0.025942903
155	0x3bd33095	0.0064450004
156	0xbc366a78	-0.011133783
157	0x3c4f725c	0.012661543
158	0x3d48e8a2	0.04904998
159	0x3c46d195	0.012134929
160	0xbd2c3831	-0.042045776
161	0x3d4503f5	0.048099477
162	0xbc95c730	-0.018283457
163	0xbcc67f14	-0.024230517
164	0x3c8a821f	0.01690775
165	0x3b04a99c	0.0020242697
166	0xbc214592	-0.009843247
167	0x3b2792e3	0.002556973
168	0x3d167e3d	0.036741484
169	0xbc23a868	-0.009988882
170	0x3cd09d8e	0.025465753
171	0x3c910ed3	0.017707264
172	0xbb0fbfda	-0.002193442
173	0x3d18159a	0.037129976
174	0xbd01f5f9	-0.03172872
175	0x3cc595f6	0.024119359
176	0xbd56bb4a	-0.052424707
177	0xbc0275f3	-0.007962692
178	0x3c3e13c4	0.011601392
179	0xbc6c59e4	-0.0144257285
180	0x3b34ae23	0.0027569614
181	0x3ce08f0c	0.02741196
182	0x3ca43984	0.020046957
183	0xba98da1f	-0.0011661685
184	0x3c33705f	0.010952084
185	0xbcc49b25	-0.02399976
186	0xbc92c5d7	-0.017916603
187	0xb8c9c6e7	-9.621475e-05
188	0xbc05a804	-0.008157734
189	0x3d1ac3f9	0.03778455
190	0x3acdbf29	0.0015697229
191	0xba7c74d2	-0.00096304447
192	0x3cfdf50e	0.03100064
193	0xbcb8b14f	-0.022545485
194	0x3d380016	0.044921957
195	0xbcd8bf87	-0.026458515
196	0xbc62e897	-0.013849399
197	0x3bb8e46d	0.005642465
198	0x3d90d670	0.07072151
199	0xbc3a3abd	-0.011366543
200	0x3ae40bb8	0.0017398512
201	0xbd31409c	-0.043274507
202	0xbc0c66f0	-0.008569464
203	0xbd4d3dd0	-0.050107777
204	0x3c42bb69	0.011885502
205	0x3d23a24f	0.03994971
206	0xbc421de1	-0.011847944
207	0xbcbba245	-0.022904525
208	0x3bd63c79	0.0065379706
209	0x3c86e52d	0.016466701
210	0xbd3d1372	-0.046161123
211	0xbd127009	-0.035751376
212	0xbb7237e7	-0.003695959
213	0xbce1db8d	-0.02757051
214	0xbcbf0582	-0.023318056
215	0xbc8dfb73	-0.017331814
216	0xbcee46dc	-0.029086523
217	0xbd4d416b	-0.050111216
218	0x3bb98ccd	0.0056625367
219	0x3cd1f240	0.02562821
220	0xbca79639	-0.020457374
221	0x3c519615	0.01279213
222	0x3c73dca7	0.014884151
223	0xbcc881d9	-0.024475979
224	0x3c74a20b	0.014931212
225	0xbb0dd263	-0.0021640293
226	0xbaa01b09	-0.0012215088
227	0xbd4940dc	-0.04913412
228	0x3ced3e7c	0.028960459
229	0x3cd92b2d	0.026509846
230	0x3c9606d5	0.018313805
231	0x3cdfa57b	0.027300587
232	0xbc36e3aa	-0.011162678
233	0x3d62348f	0.055225905
234	0x3ccd671d	0.025073582
235	0xbcfb6a62	-0.030690376
236	0xbc2b0ccd	-0.010440064
237	0xbd0b44fb	-0.03400133
238	0x3cdf69ee	0.02727219
239	0xbcfafd58	-0.030638382
240	0x3d207744	0.03917624
241	0x3d2a5654	0.041586235
242	0xbc32acc7	-0.010905451
243	0xbd7e726b	-0.062120836
244	0x38ff5ab2	0.00012176241
245	0xbb6cb0f8	-0.0036116224
246	0x3ccf3b87	0.02529694
247	0x3c713674	0.014722455
248	0x3c31a1f8	0.010841839
249	0xbd88906a	-0.0666817
250	0xbc85d8dd	-0.01633876
251	0x3c663806	0.014051443
252	0x3c3c7814	0.011503238
253	0x3c57bbaa	0.013167301
254	0xbceb1ed3	-0.028701222
255	0xbd316786	-0.04331162

fc1.bias f4 [128]
0	0xbcbf3218	-0.023339316
1	0x3c086c4a	0.008326599
2	0x3ceefb9f	0.029172717
3	0x3c90f565	0.017695138
4	0xbc8bbd86	-0.017058145
5	0x3d22f699	0.039785955
6	0x3bf419e5	0.007449376
7	0x3c0a9ae4	0.00845978
8	0x969669b9	-2.4300527e-25
9	0xbc752d75	-0.014964451
10	0x9425f085	-8.377805e-27
11	0x3c9dd5e0	0.019267023
12	0x3cc6a4c3	0.024248486
13	0xbb8ea169	-0.0043527377
14	0xbbaff81c	-0.005370153
15	0x3b9bb3d3	0.0047516613
16	0x3d385d8b	0.045011085
17	0x3cb42acf	0.021993069
18	0x3cd2102b	0.025642475
19	0x3abe3323	0.001451109
20	0x3cc92953	0.024555838
21	0x3c9867fa	0.018604267
22	0x3c8d9ba0	0.017286122
23	0x3cbb9547	0.02289833
24	0x3d0bded4	0.034148052
25	0x3baf8208	0.005356077
26	0x3b579757	0.0032896602
27	0xbcadc357	-0.02121131
28	0xbc32b692	-0.010907786
29	0x3d040594	0.032231882
30	0xbb64f2a9	-0.0034934676
31	0x3ca43c1d	0.020048195
32	0x3d4fb954	0.050713852
33	0x3c4ec3e0	0.012619942
34	0x3d33c124	0.043885365
35	0xbba9a64e	-0.0051772958
36	0xbc33fc4e	-0.010985447
37	0x3bad1e49	0.0052831513
38	0x3c984d72	0.018591616
39	0x3cb28ba1	0.021795096
40	0xbce6e434	-0.028184988
41	0x3c32b734	0.010907937
42	0x3be9c37f	0.0071339007
43	0x3d315b88	0.04330018
44	0x3c480109	0.012207278
45	0xbbabc97d	-0.005242525
46	0x3c976ce9	0.01848455
47	0x3c9c75fe	0.019099232
48	0x3d0f8af2	0.035044618
49	0x3d3567ef	0.044288572
50	0xbbae9b45	-0.005328568
51	0x3b85ad40	0.004079491
52	0xbc1f6a52	-0.009729939
53	0x3cb8931a	0.022531081
54	0x3c71b087	0.01475156
55	0x3ca02fc4	0.019554026
56	0xbc7c2368	-0.015389301
57	0x3d0fefd8	0.035140842
58	0xbca68d9e	-0.0203312
59	0xbc531c29	-0.012885132
60	0x3cceb088	0.025230661
61	0x3c14d0ca	0.009082982
62	0xbc4fcde3	-0.012683365
63	0x3bc2d92d	0.0059462995
64	0x3d1251f5	0.03572269
65	0x3d19fb18	0.037592977
66	0xbb5f8dc0	-0.003411159
67	0x3c282340	0.0102623105
68	0x3c904ae8	0.017613843
69	0x3d32e67a	0.04367683
70	0x3c892222	0.016739909
71	0x3c6824b2	0.014168905
72	0xbce45f8e	-0.027877595
73	0xbc9a30fe	-0.01882219
74	0x3d0da540	0.034581423
75	0x3c61a1e3	0.013771507
76	0x3d26c1e2	0.040712245
77	0xbcd3218d	-0.025772834
78	0x3d2246fc	0.039618477
79	0x3c77375d	0.015088883
80	0x3a6c8ae9	0.0009023385
81	0x3d0173f5	0.031604726
82	0x3cd6b51a	0.026209403
83	0x3af45355	0.0018640558
84	0x1ec5326c	2.087904e-20
85	0x3d4dbde2	0.050229914
86	0x3d0dfebb	0.034666758
87	0xbbf76e85	-0.0075510168
88	0x3cac3275	0.021020154
89	0xbc4f32ba	-0.0126463715
90	0x3ce7f5c0	0.028315425
91	0x3ca70192	0.020386491
92	0x000557d8	4.9069e-40
93	0x3cdba24d	0.02681079
94	0x000561f5	4.94318e-40
95	0xbc123fff	-0.008926391
96	0x3b8c9171	0.004289799
97	0x3ca30e86	0.019904386
98	0x3c3e28e5	0.01160643
99	0xba0e8f76	-0.00054382475
100	0x3d34aaaf	0.04410809
101	0x3d2dddbb	0.042447787
102	0x3c652134	0.013984967
103	0xba83c8ba	-0.0010054328
104	0xbc0ceb9f	-0.008601098
105	0x3d2d72f2	0.04234595
106	0x3b93de05	0.004512551
107	0x3b97a409	0.004627709
108	0x3c87149d	0.016489321
109	0x3bc14fc9	0.0058994037
110	0x3d1ea5dd	0.0387324
111	0x3b583366	0.003298962
112	0x3d21bc0d	0.03948598
113	0x3c937db0	0.018004268
114	0x3c63c8e0	0.013902873
115	0xb881567a	-6.167307e-05
116	0x3b5e15a7	0.0033887418
117	0x3c6ff9f7	0.014646999
118	0x3d197f1b	0.037474733
119	0x3d21ee66	0.039533995
120	0x3d05f716	0.032706343
121	0x3cc82906	0.024433624
122	0xbbb88045	-0.0056305253
123	0x3d17d897	0.03707179
124	0x3be782dc	0.00706516
125	0x3d24b575	0.040212113
126	0x3d4a916b	0.049455088
127	0xbb1a4ac5	-0.0023543101

fc2.weight f4 [4, 128]
0	0xbe272901	-0.16324235
1	0xbda37d34	-0.07982865
2	0xbe019d8a	-0.12657753
3	0xbd7eba00	-0.062189102
4	0x3e283fa0	0.16430521
5	0x3c22ae8b	0.00992931
6	0xbda35a28	-0.0797618
7	0xbe0e1653	-0.13875704
8	0x95ac533d	-6.9601574e-26
9	0xbe4c17b1	-0.19930913
10	0xab8ce1ba	-1.001025e-12
11	0x3d70b570	0.058766782
12	0xbc8ccc9b	-0.017187407
13	0xbdb0dcf5	-0.08635894
14	0xbd980964	-0.07423666
15	0x3d595a7c	0.05306481
16	0x3e41c63b	0.18923275
17	0x3e19c829	0.15017761
18	0xbdb6cbe5	-0.089256085
19	0xb3b1ed13	-8.285328e-08
20	0xbe247ea2	-0.16063932
21	0xbe2824c6	-0.16420278
22	0xbe495353	-0.19660692
23	0xb98fbbeb	-0.00027415095
24	0x3d447792	0.047965594
25	0x3de97f67	0.11401253
26	0x3e14fef1	0.14550377
27	0x3cd62a1d	0.026143128
28	0xbe018793	-0.12649374
29	0x3da86171	0.082217105
30	0x3d8fd68f	0.07023346
31	0x3db4a512	0.08820547
32	0xbe39c65f	-0.18142079
33	0x3e1af900	0.15134048
34	0x3de7cee9	0.11318762
35	0xbe030419	-0.12794532
36	0x3e3e5d18	0.185902
37	0xbe419282	-0.18903545
38	0x3dc2f26c	0.095188946
39	0xbd890b42	-0.066916004
40	0xbe0e14ba	-0.13875094
41	0xbe1938b2	-0.14963034
42	0xbbc4ba11	-0.006003626
43	0x3e043e68	0.12914431
44	0xbe026735	-0.12734683
45	0xbdad595a	-0.08464308
46	0xbe26c987	-0.16287814
47	0xbd07d420	-0.033161283
48	0xbe6c23ac	-0.23060483
49	0x3e1581fb	0.14600365
50	0x3d5019be	0.0508058
51	0x3d1c1f64	0.038115874
52	0x3cc9c41a	0.024629641
53	0xbe662497	-0.22474895
54	0x3e22da38	0.15903556
55	0xbe03c405	-0.12867744
56	0x3db1cc2d	0.086815216
57	0xbdb8d181	-0.09024335
58	0x3d836746	0.06416182
59	0xbd0cbb67	-0.03435841
60	0x3d8de92e	0.06929241
61	0xbd826b33	-0.06368103
62	0x3e00c1fe	0.12574002
63	0x3de4868c	0.11158475
64	0x3d9d2842	0.07673694
65	0x3c1935dc	0.00935122
66	0x3e102f8d	0.14080639
67	0x3d4e1819	0.05031595
68	0xbdb1b34e	-0.08676778
69	0x3b3bbb74	0.0028645666
70	0xbdb90ed8	-0.09036034
71	0x3d4097b8	0.04701969
72	0x3d8638c4	0.06553796
73	0xbd5b9197	-0.053605642
74	0xbe5aad4f	-0.21355174
75	0x3d575139	0.052567694
76	0x3dcba724	0.09943989
77	0xbe167ddc	-0.14696449
78	0x3e03ad32	0.12859038
79	0xbe2830d1	-0.16424872
80	0x3d33f128	0.043931156
81	0x3cd6383d	0.026149863
82	0x3dd55c54	0.10418001
83	0xbd0cd8a0	-0.034386277
84	0x984492a6	-2.5406445e-24
85	0xbd3a1f20	-0.04543984
86	0xbdf42aec	-0.11922249
87	0x3df6556d	0.120280124
88	0xbdf9f988	-0.122057974
89	0xbe5ab306	-0.21357355
90	0x3d09c416	0.033634268
91	0x3dd89937	0.105760984
92	0x80056280	-4.94513e-40
93	0xbd0dff52	-0.03466732
94	0x0b2b4919	3.2988395e-32
95	0xbe1e3778	-0.15450847
96	0xbdb4fa39	-0.08836789
97	0x3df400b1	0.119141944
98	0xbce84b48	-0.02835621
99	0xbe366a9e	-0.17814109
100	0x3b80a99c	0.003926469
101	0xbd62c629	-0.05536476
102	0xbcd92852	-0.026508484
103	0xbe747d38	-0.23875892
104	0xbe5df1ed	-0.21674319
105	0xbe39cda9	-0.1814486
106	0xbe0ec719	-0.13943137
107	0xbda488d4	-0.080339104
108	0x3d3cb191	0.046067778
109	0xbd6474b5	-0.055775363
110	0xbdef5ad8	-0.11687249
111	0xbe1d7f65	-0.15380628
112	0xbde9fa02	-0.11424638
113	0xbe0a1cff	-0.13487624
114	0xbe59b179	-0.21259107
115	0x3ba58efd	0.005052446
116	0xbe66efd1	-0.2255242
117	0x3e3e781b	0.18600504
118	0xbe8038e3	-0.250434
119	0x3dd699da	0.104785636
120	0xbe24d1f2	-0.16095713
121	0xbe3b9842	-0.183198
122	0xbe1252fe	-0.14289472
123	0xbd00e2bd	-0.031466234
124	0x3d65c138	0.05609247
125	0xbd8b10e8	-0.06790334
126	0xbe990de0	-0.29893398
127	0x3de95dfd	0.1139488
128	0x3de1f649	0.11033303
129	0xbe4e6787	-0.2015668
130	0x3d6347ae	0.05548828
131	0x3dde539a	0.108557895
132	0xbdba0777	-0.09083455
133	0x3e32ab77	0.17448221
134	0xbe0638e0	-0.13107634
135	0xbdffb00a	-0.12484749
136	0x9785a84c	-8.637408e-25
137	0x3d72cff1	0.05928034
138	0x2b7bd729	8.947171e-13
139	0xbe1aaaed	-0.15104266
140	0xbdd08082	-0.10180761
141	0xbe3bbe2a	-0.1833426
142	0x3e38babb	0.18039982
143	0xbe33e32c	-0.17567128
144	0xbca9d7bf	-0.020732759
145	0xbe0820fb	-0.13293831
146	0xbc0e5ce2	-0.008689137
147	0xbd19eaff	-0.037577625
148	0xbd7b6d3e	-0.06138348
149	0xbdd4253d	-0.10358665
150	0xbd982936	-0.07429735
151	0x3dd8cedd	0.10586331
152	0xbd42066c	-0.047369406
153	0xbe12f73f	-0.1435213
154	0x3e186ba7	0.14884816
155	0xbd32efe3	-0.043685805
156	0x3daec225	0.08533124
157	0xbe3f5eb0	-0.18688464
158	0x3e028956	0.12747702
159	0x3db26dc4	0.087123424
160	0x3e2ef042	0.17083839
161	0xbddfb535	-0.109232344
162	0xbd9087da	-0.07057162
163	0x3d9770e7	0.07394581
164	0xbd603d1d	-0.054745782
165	0xbe202a75	-0.15641196
166	0x3e24e404	0.16102606
167	0xbdb57590	-0.08860314
168	0x3d0cbbdf	0.034358855
169	0x3e3422a7	0.17591344
170	0xbda220f8	-0.079164445
171	0x3c169d63	0.009192797
172	0xbe12f93f	-0.14352892
173	0xbdb8d4bd	-0.090249516
174	0x3e4007f0	0.18753028
175	0xbd6a795f	-0.057244655
176	0x3d993211	0.074802525
177	0xbddc284b	-0.10749873
178	0x3dc9ff00	0.098630905
179	0x3e1d77dd	0.15377755
180	0xbd97525a	-0.07388754
181	0x3db70cf6	0.08938019
182	0xbdc9c7c8	-0.098525584
183	0xbe1cc38f	-0.15308975
184	0xbe21ce0a	-0.15801254
185	0xbd28fdba	-0.041257598
186	0x3d99f922	0.075182214
187	0xbdf4709d	-0.11935542
188	0x3c02d9a7	0.007986463
189	0xbe7548ce	-0.23953554
190	0x3c96a7e9	0.018390613
191	0xbe0fb84c	-0.14035147
192	0xbe1cf8d9	-0.15329303
193	0xbe00bc49	-0.12571825
194	0x3e188b8d	0.14896984
195	0x3d722a1a	0.059122182
196	0xbe0cef5b	-0.13763182
197	0xbe482620	-0.19545794
198	0x3d8b1022	0.067901865
199	0x3df9a096	0.121888325
200	0xbdc749c6	-0.09730868
201	0x3e4e0654	0.20119601
202	0xbd63b1a5	-0.055589337
203	0x3db6b09e	0.08920406
204	0x3daa3473	0.08310785
205	0x3e801e42	0.25023085
206	0xbbddd7c6	-0.006770107
207	0xbce4179c	-0.02784329
208	0xbe3ee8bd	-0.1864347
209	0xbd95eaed	-0.07320199
210	0xbd91f9fa	-0.07127757
211	0x3de43851	0.11143554
212	0x1a841994	5.4635244e-23
213	0xbe82a0d3	-0.25513324
214	0x3d136e99	0.035994146
215	0xbe123b06	-0.14280328
216	0xbe1adf56	-0.15124258
217	0xbdedb468	-0.116066754
218	0xbdbc8003	-0.09204104
219	0x3d7793d9	0.060443733
220	0x80056280	-4.94513e-40
221	0x3e2292d6	0.15876326
222	0x14815d8a	1.3062566e-26
223	0x3c04390c	0.008070242
224	0xbda72f55	-0.08163325
225	0x3dc698a6	0.09697084
226	0xbe11a4e0	-0.14223051
227	0x3dbddeb6	0.09270994
228	0xbe68cb4a	-0.22733799
229	0x3dbe4de8	0.09292203
230	0x3d489f3e	0.04897999
231	0x3d715180	0.058915615
232	0x3e1e0b7d	0.1543407
233	0x3ce00379	0.027345406
234	0x3db3a5b8	0.08771843
235	0xbd62ee9d	-0.05540334
236	0xbe0f902b	-0.1401984
237	0xbc818044	-0.015808232
238	0xbc9f9403	-0.019479757
239	0xbdccc0f4	-0.099977404
240	0xbd03a6a4	-0.032141343
241	0x3d817f7d	0.063231446
242	0x3dab6c62	0.08370282
243	0xbe5a6e52	-0.21331146
244	0x3e15b342	0.14619163
245	0xbd9eb11f	-0.07748627
246	0x3dbbbf89	0.09167392
247	0xbe848e4a	-0.25889808
248	0xbda94e69	-0.08266909
249	0x3d2ff967	0.042962458
250	0x3e0ea80a	0.1393129
251	0xbda7c876	-0.08192532
252	0xbd6ba9c7	-0.05753496
253	0xbe0aa60a	-0.13539901
254	0x3e359bb3	0.17735176
255	0x3e2eaba9	0.1705767

fc2.bias f4 [4]
0	0x3d42c99e	0.04755556
1	0xbdbc7803	-0.09202578
2	0xbc96c973	-0.018406605
3	0xbbf30d0c	-0.007417327
