prod/modelPerson.pth (torch, 397424 bytes, 4 tensors)

fc1.weight f4 [128, 768]
000000 29 d1 fe 3c e0 d0 25 3d 02 d1 86 bc 55 4a 10 bd
       0.031105595 0.0404824 -0.016457085 -0.03522714
000010 bb 92 11 3d 72 26 b9 3c dd de fe 3b 3d 19 a8 3c
       0.035540324 0.02260134 0.007778032 0.020519847
000020 6e 49 e1 bc cd e0 17 3c 6a 88 20 3d e4 26 21 3d
       -0.027500834 0.009269905 0.039192595 0.03934373
000030 e4 e0 23 bd b9 d9 5f bd ab 14 14 bd 4d 18 cf bb
       -0.040009394 -0.054650996 -0.036152523 -0.0063200356
000040 a6 f0 07 bd 5e 62 c9 bc c7 ae 01 bd 91 99 91 bc
       -0.033188485 -0.024583038 -0.03166082 -0.017773421
000050 e9 17 13 3d bb b9 63 3c e8 95 aa 3c fb 09 23 3d
       0.035911474 0.013899262 0.020823434 0.03980444
000060 25 9d 74 bd 26 2e 19 bd f6 e9 b5 39 15 07 f9 39
       -0.059720177 -0.037397526 0.00034697325 0.00047498257
000070 a8 d7 07 3c cc 43 5a bc a7 7e 88 3b 73 3b 21 3d
       0.008291163 -0.013321828 0.0041654888 0.039363336
000080 08 ff f4 bc 5b 5b bd bc c1 2a d7 bc b8 30 0c 3d
       -0.029906765 -0.02311485 -0.026265504 0.03422615
000090 c8 c9 1a 3d 4b 41 1e bd 78 c6 8a bc 21 0c fe bc
       0.03779009 -0.038636487 -0.01694034 -0.031011643
0000a0 d3 b2 10 3d 15 0d f4 3c e2 83 95 3b 95 93 0c 3d
       0.03532679 0.029791394 0.004562841 0.034320433
0000b0 12 9b dd 3c 48 49 bc bc 80 93 39 bd a4 34 83 bd
       0.027051482 -0.022984162 -0.045306683 -0.06406525
0000c0 9f 57 01 bd 8e f3 2b bd 4a 4c 05 3c 64 c9 c4 bc
       -0.031577703 -0.04198032 0.0081358645 -0.024021812
0000d0 4b e7 3f 3d e2 8e 9a 3c ff b3 d0 3c 46 af 90 bc
       0.046851438 0.01886696 0.025476454 -0.017661702
0000e0 76 16 3e 3c d5 3c b4 bc f5 23 5c 39 20 9a b0 3c
       0.011602035 -0.022001663 0.0002099423 0.021557868
0000f0 5e 9d b8 3a 25 1f e9 3c 46 8f 21 bd cd d6 27 bd
       0.0014084985 0.028457234 -0.039443277 -0.040976334
000100 72 02 47 3d 06 f3 65 bc a2 a5 63 bc b5 4a 6c 3c
       0.048586316 -0.014034992 -0.01389447 0.014422108
000110 71 10 98 bc 5d 7a c9 bc db e7 f3 bc 49 d6 0b 3d
       -0.018562527 -0.02459448 -0.029773643 0.034139905
000120 6e fe c2 3c 4e d7 4d 3d 8a 4c 89 bb 82 77 23 bc
       0.023802962 0.05025416 -0.0041900324 -0.009977223
000130 8c 3e a2 3b 9c db ba 3c fb 04 e8 3c 65 65 12 bc
       0.004951304 0.022809796 0.028322687 -0.008935307
000140 15 ea d6 bb fb 13 dc 3b 96 31 fe bb f6 c4 ff 3c
       -0.0065586665 0.006716249 -0.007757376 0.031221848
000150 16 e3 64 3d 01 5d 58 bc 9b 94 20 bd 4a 86 21 bc
       0.05588063 -0.013205768 -0.03920422 -0.009858677
000160 78 48 a3 3c a4 98 f4 bb d2 8e ed 3b ee b5 8b bc
       0.019932017 -0.0074644852 0.0072496915 -0.017054524
000170 30 47 1b bd 32 1a 9c bc 08 2e 5f bd 11 6d 26 bc
       -0.037909687 -0.01905546 -0.05448726 -0.010157839
000180 9f 54 d9 3c 5c 55 58 3d b9 ad 47 bc 48 7b ef 3c
       0.026529608 0.05281578 -0.012187415 0.02923359
000190 53 4e a5 bc b2 47 5e bd 5f cc 23 3d 25 1e 62 3d
       -0.02017895 -0.054267593 0.039989825 0.05520453
0001a0 b1 09 23 bd 78 79 d5 3c bf 80 a1 ba 68 2f e2 bc
       -0.039804164 0.026058897 -0.0012321695 -0.027610496
0001b0 c9 59 16 bc cb 75 8f bd 46 0f 98 bb 3a 4f ca 3c
       -0.00917668 -0.07004889 -0.0046404926 0.024695981
0001c0 a9 be a7 3c 84 ba 13 bd be 1f 30 3b d1 7a 3c bd
       0.020476656 -0.036066547 0.0026874389 -0.046015564
0001d0 c5 05 04 bc ba e3 16 b9 b1 e0 69 bb 3c 6c ad 3a
       -0.008058016 -0.0001438995 -0.0035686905 0.0013231109
0001e0 b8 4e d4 bc d7 f8 e1 bc 07 1d 0e 3d f1 b4 5c bc
       -0.025916442 -0.027584476 0.03469565 -0.013470874
0001f0 42 f5 30 bd 65 f7 b9 bc 77 25 08 bd bc 4e 8b bc
       -0.043202646 -0.022700975 -0.033238854 -0.017005317
000200 83 5b d2 bc 31 cd 4d 3d 50 93 1a 3c 25 b4 5e 3c
       -0.025678402 0.050244514 0.009434536 0.0135927545
000210 fd 80 83 3a 28 14 32 bd ca 86 8c 3c d5 07 ae 3d
       0.0010032948 -0.043476254 0.017154116 0.084975876
000220 7e c0 13 bd 91 43 5c bc 75 d6 cf 3c c7 be b4 ba
       -0.036072247 -0.013443843 0.025370816 -0.0013789766
000230 2c 8e a1 bc 8b eb 74 3c 81 fc e8 3c d2 f7 16 3c
       -0.019721113 0.014948736 0.028440716 0.009214358
000240 bc a1 13 3d 3a 2e de bc 22 9b 05 bc b8 2d ee bc
       0.036042914 -0.027121652 -0.008154662 -0.029074535
000250 b9 ae c9 3c b5 d2 b5 bc 0a 36 a4 bc fd de ed bc
       0.024619447 -0.0221952 -0.0200453 -0.029036993
000260 bc 50 a5 bc 7e 57 bc bb 38 e0 16 bd e5 e5 b4 3c
       -0.020180099 -0.0057477346 -0.036834925 0.022082279
000270 e4 84 ee 3b e6 ac 9e ba 25 f2 48 bc 98 f5 d3 3c
       0.0072790254 -0.0012105971 -0.012264763 0.025873944
000280 78 c2 31 3c 82 15 a0 bc fa 15 ce 3c bf cd b3 bc
       0.010849588 -0.019541506 0.025156964 -0.021948693
000290 93 9c 58 bb ac 75 8b bb 76 b2 b4 bc 70 1b 02 3d
       -0.003305231 -0.004255971 -0.022057753 0.031764448
0002a0 08 b0 1f bd c0 17 e9 bb 66 31 9a bc a7 f1 8b ba
       -0.038986236 -0.007113427 -0.018822383 -0.0010676876
0002b0 1e 22 28 bc 16 de 6a 3c 7f f8 92 3b 46 d5 a2 bb
       -0.01026204 0.014335176 0.0044851894 -0.004969272
0002c0 9e bd 86 3c 40 a5 8f 3b f3 7f a4 bc 76 59 f6 bc
       0.016447838 0.004383713 -0.020080542 -0.030071955
0002d0 50 5e 9b 3d 1d 65 7a bd c7 06 24 3c 0b e4 b5 3c
       0.07586348 -0.061131585 0.0100113815 0.022203466
0002e0 3d 43 bf 3b 64 07 05 bd 22 f3 2c bd bb 3a 93 bb
       0.005836873 -0.03247775 -0.042224057 -0.004493085
0002f0 0a 83 39 3d 8b aa 8f 3a c5 c4 d1 3c cd d3 c0 3c
       0.045290984 0.001096086 0.025606522 0.023538494
000300 fa 8d d9 3c 93 02 80 3c a5 1c 1a 3d a9 50 59 3c
       0.026556958 0.015626227 0.037624974 0.01326386
000310 e2 57 c8 ba 61 20 a3 3b ab 47 91 3c 20 15 98 bc
       -0.001528498 0.004978225 0.01773437 -0.01856476
000320 a8 23 3c 3b 01 25 56 bd 3b 0d 21 3c 2d 25 40 3b
       0.0028707776 -0.052281383 0.009829815 0.0029319033
000330 5a 65 d7 bc 3d 37 03 bb 66 d5 f2 bb 82 4a 79 39
       -0.026293445 -0.0020021938 -0.007410693 0.00023774247
000340 36 12 b7 3a fb 89 26 bd 7f 97 4a 3d 68 a5 2d bc
       0.0013967219 -0.040658932 0.049460884 -0.010598518
000350 8b f9 e0 3c c0 c2 48 3d 89 b6 d2 bc b4 08 56 3c
       0.027462741 0.049013853 -0.025721805 0.013063598
000360 9a eb bc bc 60 9a e7 3c 7b 3f d8 3c 9f 7d 4c 3b
       -0.023061562 0.028271854 0.026397457 0.0031202806
000370 be ef 18 3d ef 8b 39 bc 0b f4 c9 bb 22 eb c9 bb
       0.03733801 -0.011324867 -0.0061631254 -0.006162063
000380 3e 66 08 bc e0 79 9d bc b2 57 8a bb c0 c3 53 3b
       -0.008325158 -0.019223154 -0.00422188 0.003231272
000390 8d 69 bb bc c2 da a0 bc 33 6c cc bc d7 e7 15 bd
       -0.022877479 -0.019635562 -0.024953937 -0.036598053
0003a0 ea b2 77 bc 1f 57 7f 3c 8a 4f 67 ba b0 2b ac 3c
       -0.01511834 0.015584736 -0.0008823803 0.021016926
0003b0 c1 70 14 bc 3f 96 43 bd 24 b1 88 3c ac f5 cb 3c
       -0.009060086 -0.047750708 0.01668603 0.024897419
0003c0 8e 63 1f 3d f7 45 33 bd f1 b9 96 3c 1c b6 71 3c
       0.038913302 -0.043767896 0.01839921 0.014752891
0003d0 12 01 e5 3c b5 8f b8 bb cd 3b 29 3d a6 9e 54 3c
       0.027954612 -0.0056323656 0.041316796 0.012977278
0003e0 b3 ef 4c bc dd 45 a9 bc b7 fa b2 3b b6 3d 2c bb
       -0.012508321 -0.020663196 0.0054620164 -0.00262819
0003f0 c6 12 ae bc 65 7f 41 3d 34 4c 36 3c cd 9a bb 3b
       -0.021249186 0.047240634 0.011126567 0.005725241

fc1.bias f4 [128]
000000 15 a3 09 3d 54 3a f5 3c 95 21 01 bd 3b ab 2e 3c
       0.033602793 0.02993504 -0.031526167 0.010660942
000010 14 33 8b bc 89 93 af bc c3 a7 18 3c 9a f1 18 bc
       -0.01699213 -0.021432655 0.009317341 -0.009334946
000020 6f 46 80 bb 0f b0 cf 3c 4c 5d 34 3d 05 0a ac 3c
       -0.0039146463 0.025352506 0.044034287 0.021000871
000030 46 ad cd 3b 55 0b d1 3b 1a 6f 85 3c 63 29 ed ba
       0.0062767593 0.0063795247 0.016288329 -0.0018093999
000040 c7 29 00 3d af dd 0d 3d 62 d7 42 3d ab b9 09 3d
       0.031289842 0.034635242 0.047568686 0.033624332
000050 4c 64 fb 3c 0a 9e f9 3c be c5 85 bb bd 7d e2 3b
       0.030687474 0.030470867 -0.0040824106 0.006911962
000060 4b cc 0b bb eb 92 a9 bc 92 a0 39 bc 5a 2b 04 3d
       -0.0021331485 -0.020699939 -0.011329787 0.032267906
000070 ab 71 4a bc 33 95 f2 3c 40 c0 6b 3c 50 f9 ad 3c
       -0.012356202 0.02961216 0.014389098 0.021237046
000080 3d 9d 4f bc a2 36 97 bc 7d 83 23 bd 52 79 84 3a
       -0.012671766 -0.018458668 -0.03992032 0.0010106957
000090 30 49 df 3c 0e fc 62 bb 39 9e e4 3c a9 2f 1f 3c
       0.027256578 -0.00346351 0.027907478 0.009715953
0000a0 6c fd 96 3b b3 d5 27 3d 4c dc 89 3c d7 ff 0f 3d
       0.004607847 0.040975284 0.016828679 0.035156097
0000b0 91 f7 16 3c be a6 34 3c 81 ee 33 3d d5 ba 40 bc
       0.009214298 0.011026083 0.043928627 -0.011763294
0000c0 64 c4 a5 3c fc 73 42 3b 6a 90 99 3c 62 07 3f 3d
       0.020235248 0.0029671183 0.01874562 0.0466379
0000d0 14 e6 d5 3b ab ed 93 3b ae f1 db 3c a2 50 45 3b
       0.0065276716 0.004514416 0.02684864 0.0030107875
0000e0 cb 5d cf bc 34 cc b5 3b e3 d8 f7 3c 38 79 f1 bb
       -0.025313279 0.0055480246 0.030254787 -0.0073691867
0000f0 90 d8 9e 3c c0 d8 a3 3c 88 2f 2c bc 62 30 a3 bb
       0.019390374 0.020000815 -0.010509379 -0.004980133
000100 0a 84 84 3c 39 64 22 3d 83 bd 28 3c c8 0a 96 3c
       0.016176242 0.03964636 0.010299089 0.018315688
000110 64 f8 14 3d 10 2f b1 3b 93 d7 de bc a2 dc a5 3c
       0.036369696 0.0054072216 -0.027202403 0.020246807
000120 ac ff 2b bb 3c 92 14 3d 3f 96 00 3c 71 61 91 bb
       -0.0026244922 0.036272272 0.007848321 -0.0044366647
000130 12 ca 90 bb 09 36 cb bc 32 71 50 bc 6d 2b c3 3c
       -0.00441862 -0.02480604 -0.0127223 0.023824418
000140 75 34 75 bc a2 14 fc bc f1 0b c1 b9 32 e0 f3 3c
       -0.01496612 -0.030771557 -0.00036820726 0.02976999
000150 93 e5 29 3d 68 d4 82 3c e7 03 28 3c 23 18 8f 3a
       0.041478705 0.015970424 0.010254837 0.0010917227
000160 a0 14 cb bc a6 3e 8c 3c 48 d2 ef 3b a0 5b 43 3c
       -0.024790108 0.017119717 0.0073187687 0.011923701
000170 1a 21 84 3c 5f 60 2e b7 15 0b 38 3c cc 9a 1c 3d
       0.016129065 -1.0393646e-05 0.011233111 0.038233563
000180 ff 40 89 3c 9f bc cc 3c 27 01 48 3c e9 67 31 bc
       0.016754625 0.024992285 0.012207306 -0.010827997
000190 2a 4a 02 3d 68 b5 e5 bc c7 61 26 bc 1c 22 2a bc
       0.03180901 -0.028040603 -0.010155148 -0.010384109
0001a0 a8 b4 3d 3d e7 e0 6b bc 92 47 4d 3d a7 7b 99 3c
       0.046314865 -0.014396883 0.050117083 0.01873572
0001b0 d1 a6 f6 3c 85 f9 2b 3d bb 0c 49 bc 37 98 11 3c
       0.030108841 0.041986007 -0.012271102 0.0088863885
0001c0 83 74 94 3b 97 9d 1b bb c1 56 d9 bc 8e 3c 01 bd
       0.004530491 -0.0023745054 -0.026530625 -0.03155189
0001d0 87 3d 00 3d b1 55 5d bc 0f 1d aa 3b 0a 4e a2 ba
       0.031308677 -0.0135092 0.0051914523 -0.0012382877
0001e0 30 91 bf ba 4b d4 3e 3d 2d 57 10 bd 29 2d 2f 3c
       -0.0014615413 0.046589177 -0.035239387 0.010691919
0001f0 8d 93 de bb 05 27 00 3d a5 ec c9 3c 98 c6 40 3c
       -0.006792492 0.031287212 0.024648974 0.011766098

fc2.weight f4 [3, 128]
000000 8f f3 d5 bb 9b eb a2 bd c9 76 36 3d 8d 77 13 3d
       -0.0065292786 -0.079550944 0.044546876 0.036002684
000010 2e 36 fb bd b2 5f bb 3c 42 c2 a9 bd ad e7 03 be
       -0.12266193 0.02287278 -0.08289005 -0.12881346
000020 96 a7 85 3d 9a e7 8a 3d c7 cb 0b bd 38 81 0c bc
       0.06526105 0.06782456 -0.034129884 -0.00857573
000030 56 43 d9 3d a0 17 9a bb ed 3f 72 bd 57 12 b8 bd
       0.106085464 -0.0047025234 -0.059142996 -0.08987873
000040 8f 97 c6 bd 53 7d e8 bc 7a e3 e1 3d d8 9c 9c bd
       -0.09696876 -0.028380072 0.11029716 -0.07647103
000050 1a f8 ae 3d 76 57 b9 bd 54 ac d9 bd ce 19 a0 3d
       0.08543415 -0.09049885 -0.10628572 0.07817422
000060 fa 7e a2 bd bf ee bb 3c 40 e7 13 bd ab 65 5c 3d
       -0.07934375 0.022940991 -0.03610921 0.053807896
000070 49 05 1a bd 38 b9 9d 3c 8e d9 e9 3d b8 03 0a be
       -0.037602697 0.019253358 0.114184484 -0.13477981
000080 20 ed 13 3d 3b 15 8a 3d 08 43 a4 bd 3d f9 72 bd
       0.036114812 0.06742331 -0.08020598 -0.059319723
000090 a3 83 0f 3e 9d bd cb 3d a3 19 37 bd 2c 81 0e 3e
       0.14015059 0.09948275 -0.044702183 0.13916463
0000a0 9f 5d e9 3c 99 28 9a bd 87 34 8e 3d 9f 99 9e 3c
       0.028487025 -0.07527275 0.069436125 0.019360362
0000b0 72 40 98 3d 56 01 ba 3d 26 5e ad 3d 0e 9f d1 bc
       0.07434167 0.09082286 0.08465223 -0.025588538
0000c0 1f 14 93 3c d5 b2 91 3d 24 b1 74 3c 02 08 04 be
       0.01795393 0.07114188 0.014934812 -0.1289368
0000d0 65 6c 77 bd 5b 8d ea 3c a5 ef 8f bd 21 1e 23 3d
       -0.060406107 0.028631857 -0.070281304 0.039823655
0000e0 f7 5b 0e 3e f0 83 f2 bd d3 a2 88 bd a4 00 50 bd
       0.1390227 -0.11841571 -0.06671681 -0.05078186
0000f0 81 40 52 3c 2c 92 a4 3d 87 a9 af bd b4 cb 7e bd
       0.012832762 0.080356926 -0.08577257 -0.062205985
000100 89 00 66 bc 6e 7d 81 3d f9 11 87 bd e6 23 56 3d
       -0.0140382135 0.06322752 -0.06595225 0.05228033
000110 52 88 91 bd e7 80 9a bd 51 d1 20 3d 72 db aa 3d
       -0.07106079 -0.075441174 0.03926212 0.08342637
000120 fb 16 e7 3d 20 11 d3 bd af 2e c5 3c f3 d3 90 3d
       0.1128368 -0.10306001 0.024070112 0.07071676
000130 f7 10 cc 3b 85 54 ee 3c d3 45 0b 3d dd 40 80 bd
       0.0062276083 0.029093036 0.034002136 -0.06262372
000140 33 93 b8 bd 94 e0 bc bd 34 c4 7f 3c 72 b8 92 bd
       -0.09012451 -0.092225224 0.015610743 -0.071640864
000150 37 2f cd bd 86 c8 7b bd 72 5e 83 bd a1 39 5c bb
       -0.10018771 -0.06147053 -0.064144984 -0.0033603685
000160 c6 e2 ba bc fa 99 d0 bd c5 7a 6d bd 2b 48 80 3d
       -0.022813212 -0.10185619 -0.05797841 0.06263765
000170 fb a2 ea bd d1 68 f8 bd 66 1e 83 bd bb 31 81 bd
       -0.11456867 -0.12129367 -0.064022824 -0.063083135
000180 86 1f 91 3d b0 ed dc bd 60 cb 05 be 1d f0 bc 3d
       0.07086091 -0.10787523 -0.13065863 0.092254855
000190 3d 35 aa bd 0b e4 ef bc e9 4d af 3d e9 3a 8c bd
       -0.08310936 -0.029283544 0.08559782 -0.06847174
0001a0 f1 0a 34 bc bc 41 94 3d e1 ca c2 bc 70 70 fa 3d
       -0.010988937 0.072391 -0.02377838 0.12228477
0001b0 4f 3b db 3c ef 88 1e 3d 81 81 86 3d 7a ce a8 bd
       0.026761679 0.03870481 0.0656767 -0.08242507
0001c0 8e 51 36 bd 39 f1 02 3e 35 56 0d 3d 28 56 66 3d
       -0.04451137 0.12787332 0.03450604 0.05623451
0001d0 94 68 14 bd 95 1b 45 3c 6a de 87 bd 00 fe dd bd
       -0.036232546 0.012030502 -0.06634219 -0.10839462
0001e0 f1 d2 fd 3d af 0b 4a bd 97 33 92 3d 47 ea fc 3d
       0.123937495 -0.04932755 0.07138746 0.12349372
0001f0 42 86 b1 bd 6d 13 d0 3d 47 af 4d 3d be 3c 1c bd
       -0.08668186 0.10159955 0.050215986 -0.038143866
000200 36 04 11 3e b3 f1 6c 3d 7f e3 9e bd 68 44 cf bd
       0.14161763 0.05784769 -0.07758235 -0.10120469
000210 84 ec 5c bd b1 e9 2a 3d 78 d1 40 3d bf 4c 41 3d
       -0.053936496 0.04172677 0.047074765 0.04719233
000220 f0 09 9e bb 2b 13 94 3d a9 a7 d7 3b 35 55 a7 bd
       -0.004822962 0.072302185 0.006581266 -0.08170549
000230 1b db 22 bd f3 36 27 3d 8f db 5e bc 3a 08 25 bd
       -0.039759737 0.040823888 -0.013602152 -0.04029105
000240 db 2a fe b9 10 29 80 3d cb 9d dd bd 51 bc 2c bd
       -0.00048478585 0.06257832 -0.10821112 -0.04217178
000250 34 a7 fc 3b 25 5f 24 be 55 49 f2 bd 18 16 42 bd
       0.007710362 -0.1605192 -0.11830393 -0.04738435
000260 89 3c a1 bc 23 6b 9c 3d 45 93 53 3d 85 22 1c 3d
       -0.019682186 0.07637622 0.05165412 0.038118858
000270 48 eb d3 3b 9b 6a 9f 3d c4 2d 88 3d c9 6c 6f bc
       0.0064672567 0.07784005 0.06649354 -0.014613339
000280 cb 50 a2 3d c8 fa 09 bb d0 21 90 3d d0 d9 56 bd
       0.07925566 -0.0021054018 0.07037699 -0.052453816
000290 c3 ef a0 bc 0e e1 90 3d e4 09 b7 bc e1 dc ce 3c
       -0.019645577 0.07074176 -0.022343583 0.025251808
0002a0 1a 32 7b 3d 5a 35 42 bd f8 36 38 bc 39 4d ea bd
       0.061327077 -0.04741416 -0.011243574 -0.1144051
0002b0 fa 43 f8 bd 93 04 62 3d a8 5c 8a bc fd 7a f4 3c
       -0.121223405 0.055180144 -0.016889885 0.029843802
0002c0 84 51 81 3d 27 86 a9 bd e0 b5 3a 3c 07 00 c0 bd
       0.06314376 -0.08277541 0.011395901 -0.09375005
0002d0 ec b8 8f 3d 21 41 33 3d 2e 27 6c 3d 24 c7 0f bd
       0.07017693 0.043763284 0.057654552 -0.035102025
0002e0 35 23 92 bd 75 e0 81 3d 8b d7 b9 bb e3 e3 d7 bd
       -0.071356215 0.0634164 -0.0056714467 -0.10541513
0002f0 c4 1f 13 bc 6e 03 1d bd 93 c8 67 3d c2 fa b0 bd
       -0.0089797415 -0.03833335 0.056587767 -0.08641578
000300 7c 11 86 3d 39 f8 bd bd ec 8b 09 be a0 19 1b 3d
       0.06546304 -0.0927586 -0.13432282 0.037866235
000310 c2 0a 01 3e 30 ec 38 3d 02 19 8f bd 1a f8 cc bd
       0.1260176 0.04514712 -0.06987192 -0.10008259
000320 be 12 09 3d da db 8d 3d 70 60 0b bd 7a 44 8c bc
       0.03346514 0.06926699 -0.034027517 -0.017122496
000330 bf ad d6 bc 04 f6 80 bd cd 44 e9 3c 60 b1 9f bd
       -0.026205895 -0.06296924 0.02847519 -0.077975035
000340 a9 9b 90 bd 5e 01 f0 bc 82 0f 02 3c 93 69 3e 3c
       -0.0706094 -0.029297527 0.007938268 0.011621851
000350 af 29 6c bd a5 19 2a 3b c0 78 89 bd 58 4d 89 3d
       -0.05765694 0.0025955227 -0.06712484 0.06704205
000360 9b 05 d6 bd f7 9c 9f 3d af 2d 26 bd 98 c4 db 3d
       -0.10450288 0.077936105 -0.04057091 0.10730857
000370 91 94 48 3d d3 4c 8d 3d 33 cf 90 bd ef 55 6f bd
       0.04896981 0.06899419 -0.0707077 -0.058431562
000380 7c 7d 88 3c e6 2c b8 bc 2b 1e a2 3c a9 df d6 bc
       0.016661398 -0.022482347 0.019789776 -0.026229696
000390 ec 59 f1 3c cb c1 ac bd 12 2a 09 bd 64 61 da bc
       0.029461823 -0.084354006 -0.033487387 -0.026657768
0003a0 78 16 e2 bc fc 06 5b 3d c6 cd 81 bd 69 70 77 3d
       -0.027598605 0.053473458 -0.06338076 0.060409937
0003b0 fa 3d 93 3c b8 f6 f8 bd e7 6e f5 bd ab 64 5b bd
       0.017973889 -0.12156433 -0.119840436 -0.0535628
0003c0 ff d7 5a 3d 08 71 d6 bd 59 19 73 3b ef 7b 53 3d
       0.053428646 -0.10470778 0.0037093966 0.051631864
0003d0 ec b3 54 3d 88 78 86 bd 6c 71 d0 bd 33 b4 c1 3d
       0.0519294 -0.06565958 -0.101778835 0.094581984
0003e0 f3 01 68 3d 47 99 01 be 76 53 18 3d 32 8d 26 bc
       0.056642484 -0.12656127 0.03718897 -0.0101654995
0003f0 16 97 0a bd 60 f3 f6 bd 9d 79 f7 3d 5b 36 db bd
       -0.033835493 -0.12058139 0.12083743 -0.10703727

fc2.bias f4 [3]
000000 e4 52 41 3d cc e5 24 bd ab 76 95 3c
       0.04719819 -0.040258214 0.018245062
