prod/modelPerson.pth (torch, 397424 bytes, 4 tensors)

fc1.weight f4 [128, 768]
-0.05037236 0.01944837 -0.021492707 0.044810027 0.024724865 0.016795393 -0.00048266325 0.005456389
-0.007922021 0.018043855 0.024472086 0.0030147978 0.012679199 -0.02176454 0.028432112 0.0036520725
0.042948715 -0.015039836 -0.035997882 -0.009254268 -0.005229137 0.0072351443 0.0057185814 -0.08310934
-0.022870108 -0.0361385 0.03175079 -0.015582785 -0.0066808523 -0.03460927 -0.021289423 -0.015401985
-0.041216973 -0.050836563 -0.034444537 -0.03809877 -0.016786834 -0.062358864 -0.016436502 -0.0048355074
-0.04405646 -0.005140748 0.016759237 0.047453098 0.040311802 0.017149823 -0.020781158 -0.02070634
-0.0130465375 0.0074224463 0.019987145 0.0046797516 -0.012733658 -0.0041138493 -0.032828722 0.050069958
0.003329117 -0.026004745 -0.04951837 0.023621831 -0.035505276 -0.002700405 -0.003735865 0.016249048
0.025164636 -0.06457804 0.02967206 -0.0036054614 -0.05426065 -0.0034427329 -0.019766428 -0.012136711
0.045769215 -0.011671251 0.011206955 0.010763759 -0.003694886 -0.0051529794 -0.021821486 -5.074959e-06
-0.05873831 -0.026346268 0.033215333 0.051834617 -0.07222128 0.030687949 0.019704929 -0.03187774
0.049746845 -0.014441875 0.01717381 -0.04835363 0.034902055 -0.0062554525 0.017962126 -0.01967551
0.042447567 0.011708409 -0.021182213 0.03090223 0.036209088 -0.0111978995 0.004684705 0.007546099
-0.036671534 -0.020220082 0.023342518 -0.039729293 -0.006478575 0.016763024 -0.0412903 0.039021432
0.012299622 0.023274196 -0.010692076 0.01367008 0.004530698 0.003097323 -0.0005520253 -0.004084355
-0.017141262 -0.0025907683 0.022129396 -0.006272542 -0.0040112375 -0.021888793 0.029478677 -0.027027136
-0.009536021 -0.03810433 0.01666686 -0.004262069 0.00013731088 0.029066073 0.030145595 -0.006474422
-0.013713597 -0.01990049 0.02381997 0.00057064777 -0.028333237 0.046244726 0.0049600815 -0.019450136
-0.009659873 -0.025961434 -0.008433775 -0.052578945 -0.011596305 -0.03125733 0.053006273 0.0019049997
-0.006136994 -0.005084623 -0.029161805 -0.035334893 0.006460624 0.025624622 0.019665474 -0.034102295
-0.0011187452 -0.007740476 0.0020494324 0.00709539 -0.010991704 0.006399283 -0.031540234 0.017166447
-0.007291924 -0.0074932645 0.05456493 0.02173789 0.016102586 0.008800814 0.0024034053 -0.0022726837
-0.0049482207 -0.025225386 -0.024211077 -0.023805508 0.08025493 -0.007971955 -0.027840037 -0.009486132
-0.029098853 0.03079035 0.011047702 0.0024804815 -0.022902288 0.074010424 0.0019196777 -0.010720473
-0.021289801 -0.008726454 -0.01594556 0.064246684 -0.021554694 0.018233903 0.01537051 -0.0042405417
0.018844722 0.021518111 -0.011671239 -0.024565686 -0.0017757443 -0.045219555 0.013919658 -0.0132804485
-0.00082826347 0.04231714 0.006732456 0.027772684 -0.019717475 -0.0008616397 -0.04543268 -0.055601496
-0.03510987 0.037181344 -0.018488122 -0.03144863 0.015141103 0.042611163 -0.038861785 -0.00423485
-0.019466974 0.0039234497 -0.029409837 -0.011791975 -0.02543066 0.0180936 -0.005138233 0.0022641432
0.009973683 -0.026865095 -0.04664002 0.0039245253 -0.027240379 -0.019795146 -0.03344284 0.006430936
-0.0074591534 -0.029830782 -0.021705622 0.014405983 -0.024148168 -0.033524606 -0.0053457776 0.027426034
-0.05012131 0.038902625 0.019140128 0.052775048 0.007100015 -0.0032279845 0.03545677 0.010639057
00000000: 3f53 4ebd 3052 9f3c 7911 b0bc b88a 373d
00000010: cd8b ca3c 7e96 893c f70d fdb9 82cb b23b
00000020: 5dcb 01bc b5d0 933c af79 c83c ea93 453b
00000030: 6abc 4f3c 8c4b b2bc 76ea e83c 9c57 6f3b
00000040: feea 2f3d a569 76bc 8472 13bd 379f 17bc
00000050: 2e59 abbb ca14 ed3b f062 bb3b 3b35 aabd
00000060: 185a bbbc f705 14bd 1e0d 023d f04e 7fbc
00000070: 0deb dabb 73c2 0dbd 2867 aebc 9b58 7cbc
00000080: 21d3 28bd 003a 50bd b715 0dbd 750d 1cbd
00000090: 8b84 89bc 026c 7fbd d8a5 86bc 2d73 9ebb
000000a0: 8c74 34bd b873 a8bb ab4a 893c 2e5e 423d
000000b0: fd1d 253d c97d 8c3c 3f3d aabc 58a0 a9bc
000000c0: 25c1 55bc fe37 f33b 15bc a33c 9a58 993b
000000d0: d5a0 50bc 78cd 86bb 6977 06bd 2816 4d3d
000000e0: 512d 5a3b e707 d5bc c6d3 4abd 9282 c13c
000000f0: fb6d 11bd 47f9 30bb 6ad5 74bb b91c 853c
00000100: 1126 ce3c 7e41 84bd d212 f33c 9b49 6cbb
00000110: 6a40 5ebd 799f 61bb 34ed a1bc 0ed9 46bc
00000120: 8078 3b3d c638 3fbc 609d 373c 7a5a 303c
00000130: e725 72bb 53da a8bb f9c2 b2bc 9149 aab6
00000140: 9597 70bd 21d4 d7bc cd0c 083d 8950 543d
00000150: c0e8 93bd 4b65 fb3c 3b6c a13c 3c92 02bd
00000160: 59c3 4b3d 9d9d 6cbc 17b0 8c3c 750e 46bd
00000170: 75f5 0e3d 8afa ccbb 4f25 933c 892e a1bc
00000180: 80dd 2d3d a0d4 3f3c 5286 adbc ac26 fd3c
00000190: fb4f 143d 6577 37bc 2782 993b 4445 f73b
000001a0: e434 16bd 96a4 a5bc cf38 bf3c 2fbb 22bd
000001b0: 3a4a d4bb 9c52 893c 0520 29bd f0d4 1f3d
000001c0: 5b84 493c 87a9 be3c d12d 2fbc 79f8 5f3c
000001d0: 4076 943b 75fc 4a3b cab5 10ba 0ed6 85bb
000001e0: d56b 8cbc e1c9 29bb b548 b53c e589 cdbb
000001f0: b370 83bb 2050 b3bc 447d f13c 0368 ddbc
00000200: f93c 1cbc 4913 1cbd f088 883c d3a8 8bbb
00000210: 1cfb 0f39 f91b ee3c e5f3 f63c 6327 d4bb
00000220: ffae 60bc 5a06 a3bc 1922 c33c 8697 153a
00000230: 1b1b e8bc 1c6b 3d3d 2e88 a23b e455 9fbc
00000240: 7244 1ebc 13ad d4bc d12d 0abc 055d 57bd
00000250: 6efe 3dbc b007 00bd 1b1d 593d 2fb1 f93a
00000260: d618 c9bb e99c a6bb bde4 eebc 52bb 10bd
00000270: a4b3 d33b baea d13c 7d19 a13c d9ae 0bbd
00000280: dca2 92ba d2a3 fdbb c54f 063b 7280 e83b
00000290: 8c16 34bc 14b1 d13b 5530 01bd a6a0 8c3c
000002a0: 18f1 eebb 0f8a f5bb 7a7f 5f3d a913 b23c
000002b0: 92e9 833c 4a31 103c 7382 1d3b 4ef1 14bb
000002c0: af24 a2bb 78a5 cebc 4f56 c6bc c503 c3bc
000002d0: b25c a43d ce9c 02bc ca10 e4bc b96b 1bbc
000002e0: b860 eebc 0b3c fc3c 6c01 353c 938f 223b
000002f0: 949d bbbc c792 973d b29d fb3a eca4 2fbc
00000300: f367 aebc 67f9 0ebc 43a0 82bc c493 833d
00000310: 7893 b0bc 445f 953c 97d4 7b3c 3ef4 8abb
00000320: 3f60 9a3c c046 b03c b938 3fbc fa3d c9bc
00000330: 17c0 e8ba 2438 39bd 470f 643c 3d96 59bc
00000340: d21f 59ba bd54 2d3d ef9b dc3b 8a83 e33c
00000350: 8b86 a1bc a9df 61ba 9e17 3abd 65be 63bd
00000360: 5ecf 0fbd 774b 183d 6774 97bc 47d0 00bd
00000370: 6412 783c 0b89 2e3d 892d 1fbd 7fc4 8abb
00000380: 3479 9fbc 4890 803b e6ec f0bc 2133 41bc
00000390: f653 d0bc 0839 943c 9f5e a8bb 0562 143b
000003a0: a968 233c 3014 dcbc 9b09 3fbd 4e99 803b
000003b0: 3727 dfbc 6e29 a2bc 5cfb 08bd 9aba d23b
000003c0: ea6b f4bb af5f f4bc fdcf b1bc 1207 6c3c
000003d0: 61d2 c5bc 1951 09bd a22b afbb 90ac e03c
000003e0: 014c 4dbd 5c58 1f3d c2cb 9c3c a62a 583d
000003f0: 3ea7 e83b 988c 53bb 1e3b 113d 704f 2e3c

fc1.bias f4 [128]
0.0053339526 -4.90894e-40 -3.3846618e-07 0.046921365 0.005173012 0.020590782 0.011873355 -0.008441013
0.03011995 -0.0112991175 -9.828869e-33 -0.009250967 0.003984528 0.013494376 0.013958408 -0.0021969536
0.001244243 0.011043007 0.032131553 -0.008627337 0.052337237 0.004948394 -0.027661098 0.012494205
0.04570856 0.037228737 -0.00864579 0.041425906 0.013412764 0.04318359 -0.021854892 0.0006713582
-0.008947703 0.012423725 -0.026035849 0.0077781007 0.032929007 -0.013027272 -0.006024726 -0.026340617
0.029877039 0.027187359 0.015258338 -0.007815512 0.0013369025 -0.01790485 -4.91339e-40 0.032787774
0.022025764 0.032322466 0.01434121 -4.91098e-40 -0.01899285 -0.016265169 -0.030401858 4.465176e-06
-0.01139125 0.01152981 0.013676234 -0.008465049 0.004390548 -0.0048612673 0.027274024 -0.014550409
-0.017433444 -0.0146784205 0.034909606 -0.0195574 -0.005685097 -0.036524765 -0.023959465 0.0077955886
0.040887598 0.008358665 -0.0056285462 -0.012722134 -0.011638027 0.0055601867 0.005517336 0.0083936425
0.026395977 0.015074091 0.034454238 0.019825002 -0.023467133 0.026747314 -0.008522431 0.009988215
0.005263175 -0.03402398 0.036479514 -0.0010773278 -0.031948287 -0.038400203 0.020331142 0.051712994
0.048188474 0.050140627 -0.0044375756 -0.00032342045 0.035304148 -7.2657965e-18 0.014873226 0.03953165
0.032290883 0.05199894 0.025269046 0.010275767 0.03318625 -0.009930641 -0.009086101 -0.013881857
0.0062280395 -0.0130028 0.01339032 0.056005806 -0.0264843 0.0072344425 -0.020701658 -0.0016472278
0.013517372 -0.027662909 0.013663138 0.044954456 0.01995352 0.04967219 0.04739163 -0.00078484416
00000000: 70c8 ae3b 6a58 0580 70b6 b5b4 9e30 403d
00000010: 5f82 a93b 00ae a83c 7688 423c 2d4c 0abc
00000020: 1dbe f63c ef1f 39bc 3b23 4c8a 5e91 17bc
00000030: a590 823b 8417 5d3c ceb1 643c c4fa 0fbb
00000040: de15 a33a baed 343c 609c 033d ad59 0dbc
00000050: 925f 563d 2326 a23b 8799 e2bc 7eb4 4c3c
00000060: e638 3b3d 297d 183d 12a7 0dbc 36ae 293d
00000070: 36c1 5b3c 47e1 303d 0809 b3bc 16fe 2f3a
00000080: 6399 12bc e18c 4b3c 2249 d5bc 70df fe3b
00000090: 91e0 063d 5770 55bc 116b c5bb 47c8 d7bc
000000a0: b1c0 f43c 06b8 de3c 1cfe 793c a20c 00bc
000000b0: 013b af3a 31ad 92bc a759 0580 794c 063d
000000c0: 606f b43c 9064 043d 65f7 6a3c fb58 0580
000000d0: e596 9bbc 883e 85bc 510d f9bc 92d3 9536
000000e0: 5ea2 3abc 87e7 3c3c 4812 603c fdb0 0abc
000000f0: 96de 8f3b 444b 9fbb c66d df3c d764 6ebc
00000100: 95d0 8ebc c27d 70bc 60fd 0e3d d736 a0bc
00000110: 0d4a babb fe9a 15bd a446 c4bc 2372 ff3b
00000120: c179 273d c8f2 083c ab6f b8bb 7f70 50bc
00000130: 6cad 3ebc 3a32 b63b c5ca b43b 7d85 093c
00000140: 603c d83c 52f9 763c e31f 0d3d 0b68 a23c
00000150: 253e c0bc 2f1d db3c aba1 0bbc 9ca5 233c
00000160: b676 ac3b bb5c 0bbd 8b6b 153d 1f35 8dba
00000170: 35dc 02bd 8849 1dbd 7f8d a63c 01d1 533d
00000180: 4761 453d 4260 4d3d 1569 91bb c290 a9b9
00000190: 159b 103d c107 06a3 d5ae 733c f0eb 213d
000001a0: 7243 043d d7fc 543d 0801 cf3c b15b 283c
000001b0: 4eee 073d 21b4 22bc dfdd 14bc ba70 63bc
000001c0: 9514 cc3b b209 55bc 1363 5b3c 5866 653d
000001d0: 9af5 d8bc e70e ed3b 8696 a9bc cbe7 d7ba
000001e0: f877 5d3c 539d e2bc 5bdb 5f3c 2a22 383d
000001f0: 9075 a33c 1175 4b3d ba1d 423d 00be 4dba

fc2.weight f4 [3, 128]
-0.03097565 1.3012861e-07 1.7030838e-09 0.030262817 0.21127406 0.12657063 -0.0025696654 0.100379765
0.078013055 0.114045985 -1.0054648e-10 -0.18370573 -0.20308235 0.1698915 -0.12509853 0.057120625
0.042898137 0.1812387 0.22777379 -0.038073607 -0.02468636 0.06429583 0.10876559 -0.2563759
-0.120659545 -0.06421969 -0.15939024 -0.07274342 -0.054791722 -0.23675354 0.076954864 0.0040738247
-0.17416291 -0.03046152 -0.22984736 0.08710779 -0.006465569 0.12680723 0.050600253 -0.0055507193
-0.15139991 0.13309409 -0.12579018 -0.03886036 0.13883246 0.06974731 4.90952e-40 -0.16959694
-0.34522837 -0.035848748 -0.044900306 -1.8153202e-16 0.11142026 -0.120552 0.025760215 -0.045655906
0.06397212 -0.0018888825 0.03582169 0.060232963 -0.15262416 0.0612499 0.07077586 0.22791268
0.21697983 -0.12556964 0.0680301 0.15829049 -0.096321434 0.20466931 0.12384477 0.21953137
0.07976628 0.14009304 0.21080397 0.09934907 0.12447313 -0.10315401 0.21619345 0.121816486
-0.034188647 0.14135002 -0.28831327 -0.28842112 0.15155402 0.09323897 0.001118988 -0.10391915
-0.15444535 -0.24799693 0.22966585 0.01375821 0.13472666 0.09216498 -0.088072374 -0.197232
0.013815016 -0.07879773 0.083165504 0.024768027 -0.2416332 -4.8832488e-12 -0.05477365 -0.2675266
-0.18435541 -0.0033625872 -0.12435165 -0.07644797 -0.060797106 -0.05098395 -0.10926452 0.13163376
0.115224935 0.11476044 0.1364408 0.056767378 -0.27344713 0.1816023 0.21781492 0.11042677
-0.22427619 0.07111458 0.071836285 0.065356515 -0.009526959 -0.15558985 -0.13132223 0.24547207
0.086500295 6.1785336e-08 1.00916235e-08 -0.1295151 0.06309129 0.036867626 0.0015159149 0.031206585
-0.118678726 0.13845742 6.9782166e-14 0.05720809 -0.14849962 0.082316816 0.10142266 -0.08246957
-0.08328851 0.100504965 -0.06930614 -0.12654944 -0.14315893 0.011765148 -0.03935603 0.1293005
0.037730068 -0.12528083 0.01591976 0.05271035 0.030015701 0.19062859 -0.18745814 0.0034107356
0.092390046 -0.13851869 0.12296981 -0.21166904 -0.21452376 0.1423551 0.089136705 -0.1293533
0.056743365 -0.042647112 0.032178957 -0.036689762 0.15727502 -0.15620656 -4.92596e-40 0.01909185
-0.015411711 0.18665792 -0.02310458 1.8910197e-17 -0.16342278 0.04930974 0.11518734 -0.014386793
-0.07286145 -0.20704854 0.073600434 -0.15146178 0.07406891 -0.10402705 0.0829057 -0.0048720073
0.06045534 -0.028459618 -0.060612552 0.078104734 -0.03723554 0.043578073 0.009923918 0.09164052
-0.20217459 0.122462235 -0.010676632 -0.1717857 -0.01638906 -0.053242557 -0.07303479 0.04374302
-0.046680603 -0.07665972 0.11932383 0.12425514 -0.06009275 -0.2100237 -0.121885814 0.052327853
0.053958528 0.1000182 0.025944922 -0.08138398 0.040235307 0.014222646 -0.10151206 0.14920963
-0.079926826 -0.18391915 -0.11043464 0.11802839 -0.09913936 -4.828134e-10 -0.068945915 0.10930479
0.0089717535 -0.20877159 -0.06943863 -0.15032 -0.087796524 0.07431093 0.017367015 0.0033225329
0.025522267 0.098828636 0.13154957 -0.12554532 0.15858553 -0.008464175 -0.19676085 -0.03222368
-0.034322575 -0.18857165 -0.36254036 -0.15669689 -0.17957361 -0.089237005 0.03382217 0.005295317
00000000: a5c0 fdbc 7bb9 0b34 ef11 ea30 bae9 f73c
00000010: 3a58 583e bb9b 013e d567 28bb e893 cd3d
00000020: 4fc5 9f3d f190 e93d a31a ddae 5b1d 3cbe
00000030: d2f4 4fbe 0af8 2d3e d419 00be 51f7 693d
00000040: f5b5 2f3d a396 393e 883d 693e 12f3 1bbd
00000050: 0d3b cabc 88ad 833d 7ec0 de3d b443 83be
00000060: 5a1c f7bd 9d85 83bd 3237 23be 81fa 94bd
00000070: 496d 60bd 856f 72be 839a 9d3d b87d 853b
00000080: c357 32be 708a f9bc 1b5d 6bbe 9265 b23d
00000090: 20dd d3bb c1d9 013e 3642 4f3d cfe2 b5bb
000000a0: 9408 1bbe d149 083e 24cf 00be 0a2c 1fbd
000000b0: 192a 0e3e add7 8e3d 9358 0500 d2aa 2dbe
000000c0: c6c1 b0be 23d6 12bd 62e9 37bd cc4a 51a5
000000d0: 4e30 e43d f8e3 f6bd 1607 d33c b001 3bbd
000000e0: d103 833d 6194 f7ba c4b9 123d d7b6 763d
000000f0: 8249 1cbe 2de1 7a3d eff2 903d f161 693e
00000100: f62f 5e3e 5495 00be 5d53 8b3d e716 223e
00000110: 2c44 c5bd d594 513e 54a2 fd3d d5cc 603e
00000120: 815c a33d 8d74 0f3e ffdc 573e 8677 cb3d
00000130: c5eb fe3d 6942 d3bd d161 5d3e ec7a f93d
00000140: 6509 0cbd 0fbe 103e cc9d 93be efab 93be
00000150: fa30 1b3e 13f4 be3d 02ab 923a 90d3 d4bd
00000160: ec26 1ebe e8f2 7dbe 862d 6b3e 1e6a 613c
00000170: c9f5 093e fec0 bc3d 4a5f b4bd 2ff7 49be
00000180: 6058 623c b460 a1bd ad52 aa3d 51e6 ca3c
00000190: b26e 77be 65d0 abac 565a 60bd 3ff9 88be
000001a0: aac7 3cbe da5e 5cbb 14ac febd c190 9cbd
000001b0: 6306 79bd 8cd4 50bd 14c6 dfbd 00cb 063e
000001c0: 0dfb eb3d 8607 eb3d 23b7 0b3e e984 683d
000001d0: 4301 8cbe f4f5 393e e00a 5f3e 6e27 e23d
000001e0: a8a8 65be 85a4 913d e71e 933d a3d9 853d
000001f0: f616 1cbc f252 1fbe 5679 06be 085d 7b3e
00000200: 1127 b13d d9ae 8433 6e5f 2d32 9b9f 04be
00000210: 0236 813d 8202 173d aab1 c63a f4a4 ff3c
00000220: d50d f3bd c8c7 0d3e ae22 9d29 0853 6a3d
00000230: 4910 18be b895 a83d afb6 cf3d cee5 a8bd
00000240: 2b93 aabd 8cd5 cd3d 61f0 8dbd 2d96 01be
00000250: 4198 12be 9bc2 403c ca33 21bd 5a67 043e
00000260: d88a 1a3d 9e49 00be 286a 823c cfe6 573d
00000270: 7de3 f53c 2434 433e 07f5 3fbe a686 5f3b
00000280: fe36 bd3d d8d7 0dbe 99d7 fb3d c5bf 58be
00000290: 1eac 5bbe 89c5 113e 4e8d b63d 3175 04be
000002a0: bb6b 683d bdae 2ebd 15ce 033d 0148 16bd
000002b0: b40c 213e 9df4 1fbe 285d 0580 8366 9c3c
000002c0: 6781 7cbc 4123 3f3e d145 bdbc 716a ae23
000002d0: 4d58 27be 03f9 493d 57e7 eb3d 95b6 6bbc
000002e0: 6238 95bd 8804 54be d3bb 963d cc18 1bbe
000002f0: 71b1 973d 220c d5bd 77ca a93d 5ca5 9fbb
00000300: 05a0 773d 2524 e9bc de44 78bd 60f5 9f3d
00000310: 4b84 18bd ec7e 323d ee97 223c 06ae bb3d
00000320: db06 4fbe 7bcd fa3d 0aed 2ebc 97e8 2fbe
00000330: 5a42 86bc de14 5abd 4493 95bd e22b 333d
00000340: 2934 3fbd c5ff 9cbd 0d60 f43d 7b79 fe3d
00000350: d123 76bd 7410 57be 459f f9bd bb55 563d
00000360: 9e03 5d3d 58d6 cc3d 728a d43c a5ac a6bd
00000370: c7cd 243d 1a06 693c 8ee5 cfbd 69ca 183e
00000380: adb0 a3bd 4d55 3cbe 8e2b e2bd deb8 f13d
00000390: 9409 cbbd f9b6 04b0 8433 8dbd 31db df3d
000003a0: 43fe 123c 38c8 55be d735 8ebd 7ced 19be
000003b0: aace b3bd 5430 983d 4545 8e3c dabe 593b
000003c0: 1314 d13c ab66 ca3d eeb4 063e f48e 00be
000003d0: 3f64 223e 53ad 0abc ad7b 49be fafc 03bd
000003e0: d495 0cbd ed18 41be e49e b9be 2675 20be
000003f0: 25e2 37be e4c1 b6bd 1e89 0a3d 5784 ad3b

fc2.bias f4 [3]
0.027817301 0.06693608 0.051306907
00000000: 1ce1 e33c c915 893d 3127 523d
