prod/modelNumber.pth (torch, 396912 bytes, 4 tensors)

fc1.weight f4 [128, 768]
0.017258866 -0.0066753263 -0.006364878 0.009081293 0.004772226 -0.0132471025 0.0041326024 -0.018679187
0.005012793 0.02714131 0.002216958 -0.020954972 0.0082485145 0.036384873 0.035169944 0.028928801
0.009100371 -0.0094757015 0.010428489 -0.0031652404 -0.0060333423 -0.023079624 -0.0131274145 0.007524798
0.016982885 -0.010928216 -0.0037686217 0.009987498 -0.01729248 -0.012995684 -0.01015102 -0.0029474138
0.030417642 -0.01660569 -0.0037630582 0.0003258218 -0.021325886 -0.0046397555 0.02094525 -0.023155976
0.015589731 -0.010343365 -0.013217467 0.0048110206 -0.024347307 -0.03506007 0.015349144 0.026827408
-0.015393221 0.02022319 -0.008288035 0.018362027 -0.024472028 0.033012044 -0.009047689 0.02877105
0.010068691 -0.028765304 -0.012977542 0.008627683 0.020256773 -0.03059188 -0.030826896 0.018341044
-0.010717585 0.021897828 -0.012720525 0.026634578 0.02047349 -0.0028066821 -0.025673425 -0.028608257
0.02648224 -0.025121618 -0.019256007 -0.005381295 -0.019090647 0.021001827 0.0035958677 0.013096542
-0.030520385 0.009793467 0.01395312 0.0045883525 -0.01968966 0.013093049 -0.016624127 -0.019161008
0.020139359 0.030863095 -0.007907643 0.0035345366 0.008669835 0.0067049013 0.016693676 -0.004245188
0.015211843 0.004230417 0.019915404 -0.011127907 0.008678442 0.0020861991 -0.0073285582 0.0075800833
-0.0036545102 -0.031264853 -0.011497624 -0.01157722 -0.02899758 0.012591808 -0.00902951 -0.012115892
-0.0044094734 0.031777512 0.024807287 0.010849891 -0.017842742 0.005955949 0.023211721 -0.0021164557
-0.020110486 -0.02396377 0.0034315425 0.012677432 0.025427407 0.014491431 0.00085780624 -0.011281121
0.012073182 0.005422454 0.04132543 0.008694689 0.022764048 -0.0027265048 -0.028114237 0.0027002704
-0.021413645 0.007896277 0.010745135 -0.020016292 -0.023026146 -0.028054962 -0.0037920075 0.021530842
0.017409576 -0.01515391 -0.018609848 -0.01109816 -0.020660354 0.025997747 0.016147181 0.016683245
0.009397097 0.01760551 -0.00029266402 -0.0036692584 0.0035022376 0.02357047 -0.021843668 -0.01747424
0.01396025 -0.00015891784 -0.025201743 0.0056610475 0.01581291 0.0059646633 -0.019022891 0.024259387
0.010430292 0.0076310337 -0.0101378225 0.016998315 0.011874877 0.021178594 -0.00095166 0.017693844
-0.005098531 -0.012584221 0.0059871916 -0.0128878085 0.015123962 -0.02310304 0.032052763 -0.0030480258
-0.01028801 -0.0008275246 -0.012289702 -0.035742737 -0.0123508405 0.018403273 -0.02063477 -0.013151534
0.02534115 0.002022222 0.0074406704 -0.000100453806 0.019556101 -0.017728206 0.005841227 -0.010809715
-0.00298706 0.019564155 0.00026627173 -0.010990681 0.025431108 0.02916417 -0.03150208 0.016614921
-0.012920623 0.0055746813 -0.01640054 -0.0064603346 0.02752651 -0.004903695 -0.018034134 0.025573911
0.018672021 -0.025749989 0.023496471 -0.012420436 0.018022956 0.010300546 0.01639926 0.003656268
-0.011594225 -0.036570176 -0.008426047 0.00088753196 0.003976615 -0.028725373 0.02399915 -0.012697532
0.008403432 -0.019753866 -0.020758033 0.014380295 -0.028192665 0.02646076 -0.008044588 0.0028196203
0.0016029725 -0.0044068783 0.02107434 -0.022809125 0.02456276 -0.025142014 0.011651475 0.0063197184
0.009047706 0.026307128 -0.004200577 -0.011399087 -0.016912613 -0.014404206 0.017824532 -0.019010738
00000000: 7762 8d3c b2bc dabb 7790 d0bb b4c9 143c
00000010: 5560 9c3b 600a 59bc c86a 873b 1805 99bc
00000020: 5b42 a43b 7457 de3c 624a 113b c3a9 abbc
00000030: c724 073c 4e08 153d 5c0e 103d 18fc ec3c
00000040: b919 153c f93f 1bbc 41dc 2a3c ec6f 4fbb
00000050: 58b3 c5bb 7b11 bdbc 5e14 57bc 9592 f63b
00000060: b11f 8b3c 430c 33bc fbfa 76bb 9aa2 233c
00000070: f6a8 8dbc d9eb 54bc 7750 26bc 6629 41bb
00000080: 6b2e f93c a808 88bc a49d 76bb 10d3 aa39
00000090: a0b3 aebc 1709 98bb 5f95 ab3c 9ab1 bdbc
000000a0: 126c 7f3c 3877 29bc 138e 58bc c4a5 9d3b
000000b0: 0174 c7bc 269b 0fbd fa7a 7b3c 27c5 db3c
000000c0: d933 7cbc 1aab a53c 8aca 07bc f66b 963c
000000d0: 9079 c8bc a337 073d c23c 14bc 44b1 eb3c
000000e0: 27f7 243c 37a5 ebbc c29f 54bc 205b 0d3c
000000f0: 88f1 a53c d39b fabc b088 fcbc f53f 963c
00000100: cf98 2fbc 1363 b33c c069 50bc c230 da3c
00000110: 05b8 a73c 50f0 37bb 1351 d2bc dd5b eabc
00000120: 48f1 d83c dacb cdbc c6be 9dbc 9355 b0bb
00000130: fd63 9cbc 060c ac3c a6a8 6b3b e192 563c
00000140: e305 fabc c774 203c a19b 643c e459 963b
00000150: 364c a1bc 3a84 563c 522f 88bc 8cf7 9cbc
00000160: 4cfb a43c 9ad4 fc3c 0f8f 01bc afa3 673b
00000170: ec0b 0e3c cab4 db3b 2dc1 883c 381b 8bbb
00000180: 183b 793c 4f9f 8a3b a125 a33c d351 36bc
00000190: 0630 0e3c 9db8 083b 6724 f0bb 5962 f83b
000001a0: 8280 6fbb 930f 00bd 8860 3cbc 61ae 3dbc
000001b0: 558c edbc df4d 4e3c 83f0 13bc bc81 46bc
000001c0: 587d 90bb 2329 023d a738 cb3c bec3 313c
000001d0: f12a 92bc 1f2a c33b 8226 be3c 3cb4 0abb
000001e0: bfbe a4bc ab4f c4bc bbe3 603b 01b5 4f3c
000001f0: 234d d03c 786d 6d3c 67de 603a 73d4 38bc
00000200: 98ce 453c d7ae b13b db44 293d 2b74 0e3c
00000210: ab7b ba3c 29af 32bb d44f e6bc 05f7 303b
00000220: ab6b afbc 635f 013c 5d0c 303c 35f9 a3bc
00000230: 54a1 bcbc 85d3 e5bc 5483 78bb 7361 b03c
00000240: 879e 8e3c 1b48 78bc ae73 98bc 0fd5 35bc
00000250: e73f a9bc 3af9 d43c 1847 843c 4dab 883c
00000260: 48f6 193c 6e39 903c b370 99b9 f177 70bb
00000270: cc85 653b dc16 c13c 7ef1 b2bc 2326 8fbc
00000280: 88b9 643c 2fa3 26b9 e373 cebc 4f80 b93b
00000290: 138a 813c 3973 c33b e5d5 9bbc 9fbb c63c
000002a0: d1e3 2a3c c00d fa3b 1c19 26bc 0d40 8b3c
000002b0: d88e 423c bb7e ad3c d278 79ba aef2 903c
000002c0: 9411 a7bb 0c2e 4ebc 3430 c43b 6327 53bc
000002d0: 7fca 773c 9642 bdbc c249 033d 63c1 47bb
000002e0: 0b8f 28bc 3cee 58ba bf5a 49bc fa66 12bd
000002f0: 2e5b 4abc 76c2 963c 400a a9bc 8879 57bc
00000300: 3e98 cf3c 4187 043b ded0 f33b baaa d2b8
00000310: 1e34 a03c be3a 91bc c367 bf3b 3b1b 31bc
00000320: 8dc2 43bb 0245 a03c 639a 8b39 4212 34bc
00000330: e654 d03c b3e9 ee3c 5308 01bd 041c 883c
00000340: 05b1 53bc d1ab b63b 6d5a 86bc 37b1 d3bb
00000350: 477f e13c 2daf a0bb 52bc 93bc 6180 d13c
00000360: 11f6 983c a4f1 d2bc ac7b c03c 167f 4bbc
00000370: e1a4 933c 9fc3 283c be57 863c ff9d 6f3b
00000380: b4f5 3dbc 9cca 15bd 670d 0abc 43a9 683a
00000390: 444e 823b 7951 ebbc de99 c43c 4f09 50bc
000003a0: 8cae 093c dcd2 a1bc c00c aabc 549b 6b3c
000003b0: 4ef4 e6bc 3cc4 d83c 73cd 03bc 61c9 383b
000003c0: d51a d23a 9367 90bb 18a4 ac3c 34da babc
000003d0: d737 c93c a0f6 cdbc d4e5 3e3c a415 cf3b
000003e0: d43c 143c 0c82 d73c fea4 89bb 3cc3 3abc
000003f0: 528c 8abc 9eff 6bbc c104 923c 68bc 9bbc

fc1.bias f4 [128]
0.0037830402 -0.0017540164 0.0051207733 0.001770867 0.013863379 -0.004149269 0.0043398626 -0.009065535
0.0022524626 0.0073785814 0.009093932 0.014495386 -0.0029272635 -0.0084983 0.001979465 -0.016993616
0.016269384 -0.010690614 0.011442001 0.010017471 -0.010552653 0.00024165373 1.2296252e-31 -0.0048068506
0.010278415 0.00778521 -0.009036646 0.0015144197 0.010289502 -0.0043639787 0.005704659 -0.0014200361
-0.008562537 0.011847581 0.008024596 -0.0004498124 -0.0050088246 -0.011733945 0.007876013 0.0096563
0.017445311 0.0007037714 -0.013984051 -0.0024677247 0.0013513505 0.0045202156 -1.9507254e-06 0.003361189
-0.0028359063 -0.010979135 -0.004314647 -0.0041013085 0.0055251936 0.011394874 -0.0042363415 0.012443129
0.01424826 -0.00463425 -0.014014224 -0.0021683024 -0.0028251929 -1.7517592e-19 0.00037896846 -0.007398591
-0.00025304063 -0.02617023 0.015541107 -1.1693891e-32 -0.0043324265 -0.0066128913 -0.01081553 0.005085146
-0.0067450963 -0.005631517 0.0038165692 0.0014393749 0.003255025 -0.00070866465 6.459745e-08 -0.00628221
0.019457223 -0.008668907 0.0025623615 0.00492863 0.005465449 7.2460494e-07 -0.0042982977 0.01845965
-0.019543068 0.004233674 -0.0034934285 0.009559676 -0.0024112382 0.015440574 -0.0052433643 -0.009937898
-0.00019046763 4.92884e-40 -0.016632272 0.0048808944 -0.0068888767 0.0068145157 0.011593096 0.004950622
0.0016625089 -0.022140946 -0.0012358819 -0.005521605 -0.005607677 -0.0034770882 -0.02970453 0.009670662
-0.0035620863 0.0044452287 0.0013856774 0.026461825 0.0035425113 -0.016670063 0.0129502695 -0.015330677
0.0065713683 -0.005726199 -0.008051594 -0.0147144105 0.004751164 -1.8885767e-35 -0.009948353 0.010992027
00000000: e2ec 773b 06e7 e5ba 29cc a73b 701c e83a
00000010: 3a23 633c 97f6 87bb 6835 8e3b 9c87 14bc
00000020: 0d9e 133b 07c8 f13b b7fe 143c 0e7e 6d3c
00000030: 55d7 3fbb 743c 0bbc e9b9 013b 3236 8bbc
00000040: 5f47 853c af27 2fbc 3b77 3b3c 5220 243c
00000050: 09e5 2cbc 6e64 7d39 4e9d 1f0c c982 9dbb
00000060: cc66 283c 131b ff3b 710e 14bc 7e7f c63a
00000070: 4d95 283c b5ff 8ebb 26ee ba3b 8120 baba
00000080: e249 0cbc 5b1c 423c 9879 033c ccd4 ebb9
00000090: 1121 a4bb bc3f 40bc 650a 013c 7535 1e3c
000000a0: 78e9 8e3c 4d7d 383a 5c1d 65bc 8db9 21bb
000000b0: cc1f b13a 511e 943b 35e9 02b6 6547 5c3b
000000c0: 9dda 39bb d4e1 33bc e261 8dbb 4564 86bb
000000d0: af0c b53b 91b1 3a3c 02d1 8abb 44de 4b3c
000000e0: 8971 693c e8da 97bb ea9b 65bc 141a 0ebb
000000f0: df26 39bb accf 4ea0 49b0 c639 e16f f2bb
00000100: 8aaa 84b9 f362 d6bc 21a0 7e3c 64df 728a
00000110: 07f7 8dbb f4b0 d8bb 9f33 31bc 4ca1 a63b
00000120: f805 ddbb 9788 b8bb 681f 7a3b 68a9 bc3a
00000130: 4252 553b aec5 39ba d3b8 8a33 ffda cdbb
00000140: c164 9f3c 0808 0ebc 4bed 273b 5880 a13b
00000150: 8217 b33b 7982 4235 bcd8 8cbb b138 973c
00000160: c918 a0bc a2ba 8a3b 01f2 64bb 30a0 1c3c
00000170: dd05 1ebb 76fa 7c3c 87d0 abbb 91d2 22bc
00000180: 44b8 47b9 f65d 0500 6740 88bc e9ef 9f3b
00000190: 16bc e1bb 4d4c df3b f8f0 3d3c d438 a23b
000001a0: 8be8 d93a ee60 b5bc 51fd a1ba 94ee b4bb
000001b0: 9bc0 b7bb dcdf 63bb ea56 f3bc b271 1e3c
000001c0: e471 69bb 48a9 913b 9e9f b53a 78c6 d83c
000001d0: 7a29 683b a88f 88bc 5e2d 543c 852d 7bbc
000001e0: a254 d73b d7a2 bbbb d5ea 03bc b614 71bc
000001f0: a7af 9b3b f3d3 c885 6bfe 22bc e717 343c

fc2.weight f4 [2, 128]
0.037293095 0.05990335 0.023679122 -0.057171352 -0.01081872 0.035124093 -0.051863 0.0007925513
-0.05314867 -0.0007377766 -0.07936046 -0.079969145 -0.05852924 0.022883452 -0.05784425 0.005076684
-0.000835055 -0.06595627 -0.04125751 0.0021909054 -0.084851295 -0.05943407 -0.00016422609 0.0032685306
0.06560449 -0.1084936 -0.04884778 -0.0404023 0.03400711 -0.020617152 0.022087608 -0.018618762
0.08788397 -0.023878036 -0.06724632 0.07590747 -0.07171422 0.09626029 -0.0073559354 0.035902727
-0.079901956 0.042192236 0.048650313 -0.009530848 -0.046395317 0.031874467 0.011018911 0.04319568
-0.08119184 -0.07004861 -0.029443843 -0.091908395 -0.048452765 0.08023314 -0.06636618 -0.06387758
-0.083276235 0.022306938 0.05430978 0.04414883 0.08904032 -0.04832796 -0.040466975 0.004737793
-0.030702941 0.039610337 0.06903952 -0.05448227 0.065976836 0.09563553 0.063881956 -0.04703291
-0.090907544 -0.006283707 0.047354195 0.042408716 -0.07095507 0.037241533 0.023250023 -0.0387563
-0.01709225 0.09938309 -0.08943965 0.08603639 -0.022290202 0.03886988 -0.0002517112 -0.091546446
-0.02902132 -0.02001616 0.08928453 0.009558019 -0.026659606 -0.08577745 -0.018099045 -0.05772288
0.045630995 0.0048156683 -0.057422727 0.08092102 0.03419552 0.10127303 0.017721659 -0.054113343
0.057259917 0.052847076 0.023118356 0.029560173 -0.07821318 0.031664073 0.044956744 0.02322921
-0.07006042 -0.07050555 -0.09832366 -0.06482028 0.012518532 -0.014402788 -0.03723661 0.047190886
0.078831054 -0.08179752 0.0032386149 0.07508801 -0.00782674 0.006103101 -0.062469337 -0.01004819
-0.06534614 -0.058661543 0.08597481 0.024270527 -0.115187146 0.055099353 -0.023238739 -0.103651986
0.04683214 -0.060233235 0.08147944 0.10503487 0.008556362 -0.08511829 0.018699376 -0.056898925
-0.06855278 -0.0049843853 0.018237777 0.10295765 0.06219811 -0.019073756 0.008741118 0.059602
-0.0076414538 -0.009139339 0.048118073 -0.076471545 -0.078647785 -0.061543025 -0.05149237 0.028308265
-0.03193818 -0.09776869 -0.017185856 -0.07019684 0.08405835 -0.057821907 -0.053708106 -0.07592704
0.017239599 0.10444945 -0.025986636 -0.01292976 -0.109183475 0.09685619 -0.017764095 -0.029068818
0.06914694 0.02999474 -0.0409877 0.06595236 -0.024051426 0.009606847 -0.048985243 -0.0003767036
0.04784877 -0.024226347 -0.007998222 0.07597584 0.007656242 -0.031947043 -0.07645477 0.087095246
0.03361433 -0.056623176 -0.047366872 -0.05474053 0.022981308 0.05683527 -0.07390627 0.09274635
-0.02745 0.0535291 0.025851563 -0.059727058 -0.043797277 0.09824699 0.05404156 0.08288207
0.09119594 0.0041251793 0.051931333 8.449338e-05 -0.060908698 -0.02283688 -0.03024761 -0.025654417
-0.07918654 -0.061164703 0.080141045 0.07539727 -0.04676379 0.03790557 -0.09928059 0.084864795
-0.061993808 0.0047618365 0.08468018 0.01747259 -0.013951847 -0.040122878 0.108699374 0.023124855
3.5915684e-05 -0.008457823 0.0115913795 -0.024695123 -0.0050665378 -0.0782202 -0.07843375 -0.014470661
0.0008311864 -0.018514631 0.022971466 0.09459056 -0.03402615 0.08678209 0.021075668 -0.09942186
-0.065850735 -0.0009699469 0.07578363 -0.020982463 -0.05617652 -0.0074469987 0.008808483 0.04022986
00000000: a5c0 183d 375d 753d b8fa c13c 822c 6abd
00000010: 0041 31bc 48de 0f3d 4c6e 54bd 38c3 4f3a
00000020: 6bb2 59bd 5967 41ba bd87 a2bd ddc6 a3bd
00000030: 5bbc 6fbd 1476 bb3c 18ee 6cbd 505a a63b
00000040: 98e7 5aba 1514 87bd a3fd 28bd 4b95 0f3b
00000050: 84c6 adbd 2471 73bd 1b34 2cb9 d834 563b
00000060: a65b 863d e431 debd 9c14 48bd e27c 25bd
00000070: 0a4b 0b3d 4de5 a8bc 12f1 b43c 6086 98bc
00000080: 83fc b33d df9b c3bc 70b8 89bd 6075 9b3d
00000090: e8de 92bd 1d24 c53d 0f0a f1bb bd0e 133d
000000a0: a3a3 a3bd c4d1 2c3d 8d45 473d 4627 1cbc
000000b0: 0409 3ebd cd8e 023d aa88 343c f4ed 303d
000000c0: e847 a6bd a575 8fbd 3734 f1bc 783a bcbd
000000d0: 6876 46bd 4651 a43d feea 87bd 40d2 82bd
000000e0: bb8c aabd 0abd b63c ef73 5e3d 67d5 343d
000000f0: c55a b63d 8af3 45bd b3c0 25bd 7d3f 9b3b
00000100: bc84 fbbc 733e 223d 9864 8d3d cd28 5fbd
00000110: dd1e 873d 90dc c33d 8bd4 823d 95a5 40bd
00000120: bc2d babd 8ee7 cdbb 79f6 413d c3b4 2d3d
00000130: e450 91bd 948a 183d d576 be3c edbe 1ebd
00000140: 0c05 8cbc 5d89 cb3d 232c b7bd d933 b03d
00000150: f199 b6bc 0636 1f3d 1bf8 83b9 b47c bbbd
00000160: 1fbe edbc eef8 a3bc cfda b63d 3d99 1c3c
00000170: 3f65 dabc 16ac afbd 7344 94bc d46e 6cbd
00000180: 91e7 3a3d c1cc 9d3b 1834 6bbd ebb9 a53d
00000190: 9a10 0c3d 3c68 cf3d 032d 913c f4a5 5dbd
000001a0: 6089 6a3d 2d76 583d b562 bd3c 2d28 f23c
000001b0: 3b2e a0bd 30b2 013d 9024 383d 2f4b be3c
000001c0: d67b 8fbd 3765 90bd ea5d c9bd 7fc0 84bd
000001d0: 871a 4d3c acf9 6bbc 6a85 18bd 3b4b 413d
000001e0: 2d72 a13d 7585 a7bd f13e 543b bec7 993d
000001f0: ba3b 00bc 86fc c73b d9df 7fbd 2aa1 24bc
00000200: 32d4 85bd 1647 70bd 9013 b03d fcd2 c63c
00000210: 3de7 ebbd dcaf 613d 2b5f bebc 7e47 d4bd
00000220: 0fd3 3f3d 20b7 76bd b1de a63d 861c d73d
00000230: fc2f 0c3c 7f52 aebd 6f2f 993c d90e 69bd
00000240: 6665 8cbd 0e54 a3bb 6467 953c 76db d23d
00000250: 72c3 7e3d 9140 9cbc e836 0f3c 3a21 743d
00000260: 2965 fabb 2bbd 15bc 7517 453d 1d9d 9cbd
00000270: 1712 a1bd 8a14 7cbd aae9 52bd bce6 e73c
00000280: 9cd1 02bd f33a c8bd 5ac9 8cbc 5cc3 8fbd
00000290: c926 ac3d aad6 6cbd 08fd 5bbd a37f 9bbd
000002a0: 0f3a 8d3c 98e9 d53d ede1 d4bc 58d7 53bc
000002b0: 969b dfbd 8a5c c63d 0286 91bc bb21 eebc
000002c0: e99c 8d3d 87b7 f53c b8e2 27bd 0812 873d
000002d0: 7f07 c5bc 0966 1d3c c0a4 48bd 4d80 c5b9
000002e0: 12fd 433d 5576 c6bc f90a 03bc 3999 9b3d
000002f0: 37e1 fa3b e7da 02bd 5294 9cbd fe5e b23d
00000300: 2eaf 093d b4ed 67bd c403 42bd 9b37 60bd
00000310: 4c43 bc3c 1acc 683d 2c5c 97bd ccf1 bd3d
00000320: d3de e0bc 5441 5b3d a8c6 d33c 5ca4 74bd
00000330: c664 33bd b835 c93d af5a 5d3d 13be a93d
00000340: f0c4 ba3d 832c 873b f3b5 543d 0a32 b138
00000350: 667b 79bd 6914 bbbc d6c9 f7bc 3629 d2bc
00000360: 8d2c a2bd d787 7abd fd20 a43d e269 9a3d
00000370: 638b 3fbd df42 1b3d 9f53 cbbd 98cd ad3d
00000380: 38ed 7dbd 2e09 9c3b cd6c ad3d ad22 8f3c
00000390: 4a96 64bc e357 24bd c79d de3d 5670 bd3c
000003a0: 2ca4 1638 ae92 0abc c5e9 3d3c 6d4d cabc
000003b0: 3305 a6bb ea31 a0bd e0a1 a0bd 5a16 6dbc
000003c0: fae3 593a ffab 97bc a82e bc3c b2b8 c13d
000003d0: 015f 0bbd cfba b13d e1a6 ac3c b09d cbbd
000003e0: c0dc 86bd 0944 7eba 7334 9b3d 6ae3 abbc
000003f0: 5a19 66bd f405 f4bb 7551 103c 11c8 243d

fc2.bias f4 [2]
0.043936875 -0.006729006
00000000: 27f7 333d fe7e dcbb
